ProyectoFinal/bike_demand_best_nn_model_.pth (torch, 47311 bytes, 7 tensors)

fc1.weight f4 [64, 44]
000000 bf d2 3e 3e b0 95 76 3e 0d 75 20 3e 94 59 ec bd
       0.18635081 0.24080539 0.15669651 -0.11540523
000010 fe 43 0c 3f a2 27 69 3e f4 2f 0a be 4b 81 ae 3e
       0.5479125 0.22769025 -0.13494855 0.34083018
000020 24 49 a1 bd aa e1 99 bd 67 34 5f 3d 81 2c 99 bd
       -0.078752786 -0.07513745 0.054493334 -0.074791916
000030 e6 f5 b2 3d 1f 74 7d be 7b cd 8c be ea 90 f7 be
       0.08738308 -0.24751328 -0.2750052 -0.48352748
000040 47 27 eb be 1e 90 b2 be 3b 61 b0 be fc ba 2b 3e
       -0.45928404 -0.34875578 -0.3444918 0.16770548
000050 8d 48 1a 3f 64 b9 1a 3e 39 69 c3 3d 67 41 08 3e
       0.60266954 0.15109783 0.09541554 0.13306199
000060 20 1f 59 3e 70 a1 19 3e 47 a9 91 3d a9 ba 28 3e
       0.2120328 0.1500299 0.07112365 0.16477455
000070 29 13 c0 3d 6e 57 49 3e 0b f7 c9 3e 59 02 7a 3e
       0.093786545 0.19662258 0.3944629 0.24414958
000080 65 00 28 3e c7 e6 01 3e 2f ae 5b 3d 6a 36 b7 3d
       0.164064 0.12685691 0.05363291 0.089459255
000090 31 84 c3 bd cc f5 c2 be 71 32 6a be 4f 56 71 be
       -0.09546698 -0.38078153 -0.22870804 -0.2356808
0000a0 fc 9c b8 3d c9 2a de 3d 85 d6 17 be 75 e6 70 3e
       0.090143174 0.10848004 -0.14827926 0.23525412
0000b0 7b 23 b7 3e d6 90 92 3e a2 3e 1c bf f4 d5 8d bd
       0.35769257 0.28626126 -0.6103307 -0.06925574
0000c0 31 74 81 be 16 a6 db bc 5b 51 a8 be 8b 7c 7a 3d
       -0.2528396 -0.026812594 -0.3287457 0.06115393
0000d0 3c 1f 25 3d aa 5e dc bd ab 80 22 be e4 a0 40 be
       0.04031299 -0.10760243 -0.15869395 -0.18811375
0000e0 dc e4 06 be 0e e3 b4 be 84 e3 1e be 0a 4a 15 bf
       -0.1317324 -0.3532948 -0.15516478 -0.583161
0000f0 2d 8f 97 bd e7 b4 ec bd 69 f3 27 3e 25 79 cb 3e
       -0.074003555 -0.11557942 0.16401447 0.39740863
000100 e2 ea 22 3f b6 78 89 3e b3 92 88 3e e2 7f a3 ba
       0.6363965 0.26849908 0.26674423 -0.0012474025
000110 a9 b6 a7 bc 2b a9 36 3d b8 3b 22 3d 52 29 8e 3c
       -0.020472841 0.044594925 0.039607733 0.017353687
000120 e4 fc 82 3d 19 70 26 3c b5 d4 6c 3d 54 09 bb 3d
       0.06395891 0.010158562 0.05782004 0.091326386
000130 db 14 ba 3c 16 70 dc bd a1 96 0f 3d 7f d2 f1 3d
       0.022715023 -0.10763566 0.03505576 0.11807727
000140 2c d9 11 be af 0d eb 3b 48 85 53 bb d2 ac d1 bd
       -0.14243001 0.007173262 -0.0032275487 -0.10238041
000150 eb d5 45 be 46 f8 60 bd 99 51 01 bd f2 19 27 be
       -0.19319884 -0.054924272 -0.03157196 -0.16318491
000160 ed b1 8f 3c 6c 11 8d 3d 05 9c 17 3b 24 6d d0 bc
       0.017540896 0.068880886 0.0023133766 -0.025442667
000170 ee 0f 3b bd 06 99 cd bd 03 4b 22 bf 38 7a dd 3d
       -0.04566949 -0.100389525 -0.6339571 0.10814327
000180 55 25 0d bf 17 df 87 be 2d 06 ba bd d4 f5 83 be
       -0.5513509 -0.26537392 -0.09083209 -0.2577349
000190 d3 95 28 bc fb 13 56 be 4e a5 af be 1a e1 4b be
       -0.010289627 -0.2090606 -0.34305805 -0.19910088
0001a0 04 68 af be 87 f2 ac be 74 ee 6b 3d 25 85 56 3d
       -0.34259045 -0.33778784 0.057600453 0.05237307
0001b0 11 57 94 3e 54 bd 1a 3e 9a d7 3d 3e e5 0c 58 3e
       0.28972676 0.15111285 0.18539277 0.21098669
0001c0 74 0b 58 3e ce d1 82 3e 7f 08 99 3e a6 73 98 3e
       0.21098119 0.25550693 0.29889295 0.29775733
0001d0 3d 65 18 3e d4 56 c4 3d fc 55 07 3d b5 37 84 be
       0.1488237 0.09586874 0.033040985 -0.2582375
0001e0 1f a8 29 bd 93 e3 34 3d 5a 37 63 3d 30 8a 3c 3d
       -0.0414201 0.044162344 0.05547271 0.046030223
0001f0 27 a8 40 3d 2a cd 49 3e 01 e1 8a 3d ce 20 26 3e
       0.047035363 0.1970717 0.06781197 0.16223451
000200 cb 78 1b 3e ac a6 0b 3d 9a b0 d8 3e 79 2a b2 bd
       0.15182798 0.034094498 0.42322236 -0.08699507
000210 36 ad fc bd ae 06 47 bc 63 1f db bd 31 04 f6 3c
       -0.12337725 -0.012147589 -0.10699346 0.030031295
000220 2b 39 0f 3e de b1 11 3e 19 ea 1c 3d bb c0 b2 3d
       0.13986652 0.14228007 0.03830919 0.08728167
000230 03 10 85 3e 52 c5 0e be de 87 08 3e e8 95 17 3e
       0.25988778 -0.13942459 0.13333079 0.14803278
000240 e2 4a 05 be 10 e9 cf 3d ae 71 42 bf 11 68 2a bf
       -0.13016847 0.10151875 -0.7595471 -0.6656504
000250 33 f8 19 bf 9c 58 9f be 1e 98 0d be e8 06 87 be
       -0.60144347 -0.3112229 -0.1382756 -0.26372457
000260 50 59 81 3e b1 78 2e 3c 4f 52 d8 3d 9f fa 46 3e
       0.25263453 0.010648892 0.10562574 0.19431542
000270 af 38 c1 3e f8 03 a6 3e 7f c0 c2 3e 2b b6 77 3e
       0.3773856 0.32424903 0.38037488 0.24190585
000280 af 0a 9c 3e 78 0f 8f 3e a0 7f 68 3e 3d 0b 85 3e
       0.304769 0.2794149 0.22704935 0.25985137
000290 7c ca 9e be 87 78 29 bf dc 9a ef be 17 0d 04 bf
       -0.31013858 -0.66199535 -0.46797836 -0.51582474
0002a0 33 09 6f 3b 0d b0 81 bc 57 4c 34 bd 28 f0 2d 3e
       0.003647399 -0.015831018 -0.044018116 0.16986144
0002b0 11 2b 7e be 6a de 59 3e 03 d9 3a 3d 09 c9 b8 bc
       -0.24821116 0.2127625 0.045617115 -0.022556799
0002c0 43 92 3a be fc a4 14 bc 88 56 94 bd bd 1c d0 3c
       -0.18219857 -0.009072538 -0.07243067 0.025404328
0002d0 25 56 13 3e 6d ea 61 3e 84 88 2d 3b e3 d4 10 3e
       0.1438833 0.22062083 0.0026479075 0.1414371
0002e0 b6 4a 3b be 68 38 7d bb 4d e7 6b be cf f4 5b be
       -0.18290219 -0.0038638357 -0.23037453 -0.21480106
0002f0 b8 7e 49 be 15 07 17 be 86 da 46 be 4d 9b 35 bf
       -0.19677246 -0.14748795 -0.19419298 -0.70940095
000300 c9 9d 39 be eb 16 9f be b3 09 af bd 3a d0 20 3e
       -0.18126597 -0.31072173 -0.08546772 0.15704432
000310 26 bc 70 3e a8 c4 5e 3c 60 3f b0 bc 46 49 58 3e
       0.23509273 0.013596691 -0.021514595 0.21121702
000320 63 90 ad 3e 91 e8 6f 3e ce b7 4f 3e ef 46 5a 3e
       0.3389922 0.23428561 0.2028496 0.21316122
000330 70 c6 4d 3e 63 45 b3 3e 60 e9 be 3e 19 c7 d5 3e
       0.20095229 0.35013875 0.37287426 0.41753462
000340 65 b6 56 3e 79 33 1e 3e f2 8b 9d 3e 8f 54 b1 bc
       0.20968015 0.15449323 0.30770832 -0.021646766
000350 d6 0f 0e 3a d5 2d 0f 3e 21 46 03 3e 98 2a 5e 3e
       0.000541923 0.13982327 0.12819721 0.21695936
000360 8c 1f 2d 3e a7 b6 5b bd 12 da 9e bc 80 01 75 3d
       0.16906565 -0.053640988 -0.019391093 0.059815884
000370 b3 04 80 bd 3d 3e fb bd 0d 2c eb 3a ca 76 99 3d
       -0.06250896 -0.122677304 0.0017942205 0.0749336
000380 1f 57 8e bd 19 b3 9d be c2 c3 d9 3d 8b 67 fa 3d
       -0.06950211 -0.30800703 0.10633041 0.122267805
000390 31 5c 61 be 82 cc 7a 3c d7 b5 95 bd aa 83 8a be
       -0.22007824 0.0153075475 -0.07310074 -0.27053577
0003a0 37 83 b8 bd 1d 94 e0 bd c7 0b c0 be a0 3d c0 be
       -0.09009402 -0.1096575 -0.37508985 -0.37547016
0003b0 cc 3a de be a7 da ea be 07 fd 6a be e0 34 8c 3e
       -0.43404233 -0.45869943 -0.22948085 0.2738409
0003c0 6b 6b 52 3e d5 4e 67 3e 46 c1 82 bc c7 fa 20 3e
       0.20548789 0.22588666 -0.0159613 0.15720664
0003d0 64 2b 47 3d 39 24 20 3d 60 1b 97 3d 7d 80 87 3d
       0.048625365 0.039097045 0.07378268 0.06616304
0003e0 cb 69 33 3e 50 3f 9d 3e ce f8 ee 3e d6 bd 86 3e
       0.17520826 0.30712366 0.46674198 0.26316708
0003f0 0e bd 7b 3e 6f 50 c3 3e ba 47 cc 3e c1 fc 1d 3b
       0.24583837 0.38147303 0.39898473 0.0024106952

fc1.bias f4 [64]
000000 fb 2e 14 be 7d 6d 01 be 3f e1 94 be 6e 8e ee bd
       -0.14471047 -0.12639423 -0.290781 -0.1164826
000010 a7 ef 90 3c 8d e9 6a bd 0a f5 c5 3d 24 b3 94 bc
       0.0176924 -0.057351638 0.09665878 -0.018151827
000020 44 51 3f bc 51 89 06 3e e3 47 ca bd 84 ae 11 be
       -0.01167709 0.1313832 -0.098769926 -0.14226729
000030 44 46 62 be cb ca 90 be af 34 3f be 51 f8 d9 bd
       -0.22097117 -0.2827972 -0.18672441 -0.10643066
000040 87 39 6f bd 0f a7 05 be 10 e4 32 be 09 2e 8a be
       -0.05840447 -0.13052009 -0.17469811 -0.26988247
000050 4a 76 bb 3d e7 16 d5 bd 96 61 1d be ca 5e 3c 3d
       0.09153421 -0.10404759 -0.15369257 0.045988835
000060 0f 1a 93 bd e8 23 79 be 25 c4 a9 be 49 f8 85 bd
       -0.07182705 -0.24330103 -0.3315746 -0.06541497
000070 9a 9f 23 bd c9 bd ed bd 67 d5 d1 bb da 3e 50 bd
       -0.03994713 -0.11608464 -0.0064036134 -0.05084119
000080 06 97 82 be 88 45 53 be 14 6e 18 be 46 cb 06 be
       -0.25505847 -0.20631993 -0.14885741 -0.1316348
000090 ce 5c 35 be 53 06 16 3c 08 56 25 be 06 b3 14 bd
       -0.17711183 0.009156781 -0.161461 -0.036303543
0000a0 2b 6d 50 be c0 4b 82 bd 92 53 14 bd d0 03 81 3e
       -0.20354144 -0.063621044 -0.03621251 0.2519822
0000b0 cd 7c 91 be fb 2d 94 be 74 17 c2 be f3 8e 9d bd
       -0.28415528 -0.2894133 -0.37908518 -0.07693281
0000c0 c5 81 39 bc c5 fa 5c bd cb 19 4b bb a9 20 a0 bd
       -0.011322443 -0.05395009 -0.0030990716 -0.078187294
0000d0 2e d9 38 3e eb 80 e4 3c fe 5f 13 be 33 ce 38 3d
       0.18051597 0.027893504 -0.14392087 0.045118522
0000e0 da cc 73 be 78 bb c2 be a8 e8 be 3c 1d 6e 70 be
       -0.23808613 -0.38033652 0.023304299 -0.23479505
0000f0 a8 0c 8a bd 5f 52 01 be 00 1b 88 bd c5 d2 cb bd
       -0.06740695 -0.12629078 -0.06645775 -0.099523105

fc2.weight f4 [64, 64]
000000 bd a9 9a bd 6d 31 46 be 58 9a af 3e 9d 87 7c 3e
       -0.07551906 -0.19354792 0.34297442 0.24661107
000010 fb 3d 96 3d b0 46 27 3e fb dd c0 3d e1 f3 aa 3e
       0.073360406 0.16335559 0.094173394 0.3338919
000020 58 f8 da bc 53 9b 1d 3e 60 15 8e 3e f7 9d bb 3d
       -0.026729748 0.15391283 0.27750683 0.09160989
000030 05 2d 89 3e d4 ba d6 3e 05 37 f8 3e 05 bd 8f 3e
       0.2679216 0.41939414 0.48479477 0.28073898
000040 5b 53 51 3e c1 52 67 3e 72 09 8b 3e d2 75 94 3e
       0.20441954 0.22590162 0.27155644 0.2899614
000050 43 9d 3e 3e d2 df ea 3d cb f4 8a 3e 77 34 e3 3d
       0.18614678 0.114684716 0.27139887 0.11093991
000060 e8 46 70 3e be f2 91 3e 7c 63 c4 3e cd fc f1 3c
       0.23464549 0.2850551 0.3835715 0.02953949
000070 aa dd c6 3e 36 1e 86 3e eb a9 cb 3d ed e0 55 3e
       0.3884099 0.26194924 0.09944519 0.20886584
000080 f9 c8 56 3e 4a 4a 3e bd 67 e2 16 3e 68 20 e3 3d
       0.20975102 -0.046457566 0.14734803 0.110901654
000090 13 ff 5d 3e 24 29 69 3e f3 d8 7e 3e 6d 05 6d 3e
       0.21679334 0.227696 0.24887447 0.23146601
0000a0 e7 6a 06 3f 4b 2f 4c 3d 74 04 79 bd 56 61 11 bf
       0.5250687 0.04984979 -0.060795262 -0.5678915
0000b0 85 e8 e3 3e 1a 43 1f 3f 0c 81 89 3e f7 e1 06 3e
       0.44513336 0.62211764 0.26856267 0.13172136
0000c0 ce 40 4a 3d ad d5 44 3e 9a 69 bd 3d 02 f6 29 3e
       0.04937821 0.19222136 0.092486575 0.16597751
0000d0 36 c5 90 3e be d9 9e 3e 03 4a 42 3e d4 4a ab 3d
       0.2827546 0.310255 0.18973546 0.08363882
0000e0 f6 d5 f9 3e 74 4f d8 3e 56 e3 9f 3e 66 c6 e1 3e
       0.48796052 0.42248118 0.3122813 0.44096678
0000f0 13 bb 2d 3e 41 30 3a bb 7a 2c 35 3d ae fd a3 3d
       0.16965894 -0.002841011 0.04423187 0.0800737
000100 b5 07 82 be 60 2e 88 be 02 b3 0c 3f 91 b3 1d 3d
       -0.25396505 -0.2659788 0.54960644 0.038501326
000110 51 89 28 3e a6 86 af 3d d2 2b 32 be 08 91 bb bc
       0.16458632 0.08570604 -0.17399529 -0.022896305
000120 30 5b 07 be d3 ee f6 bd 14 06 8c 3e df 55 4f bd
       -0.13218379 -0.12057271 0.27348387 -0.050619002
000130 93 cb 8a 3e 66 2e 01 3f 7e 08 05 3f 5b 2d 26 3e
       0.2710844 0.50461423 0.51966083 0.16228239
000140 59 db 54 3e d2 b7 5f 3d f5 4a 0e bd 80 1b c0 3e
       0.207868 0.054618664 -0.034739453 0.3752098
000150 da 7f 93 3e 62 9f e3 bd 85 e9 5f 3e f3 f9 e7 3d
       0.2880848 -0.11114384 0.21866424 0.11326971
000160 88 98 94 3e 59 ab 65 3e 3c bc 8d 3e fa 2f 9d 3c
       0.29022622 0.22428645 0.27682674 0.019187916
000170 88 83 4e 3e 63 cf 18 3d a9 75 05 bc 9a d9 2a bd
       0.20167363 0.037307154 -0.008145728 -0.041711427
000180 6e 1a ad 3e 80 e4 16 be 75 29 ff 3d 1e 68 e7 3d
       0.33809227 -0.14735603 0.12459079 0.11299156
000190 04 ec 9c 3e b1 08 45 3d 5e bc 6b 3d 56 2e fa 3e
       0.30648816 0.048103992 0.057552688 0.48863477
0001a0 5a ed 0f 3f a3 80 88 3d 5b 12 31 3e 6c 6d 4e bf
       0.56221545 0.066651605 0.17292158 -0.80635715
0001b0 d9 fc 41 3e db ab e4 3e 4d ff 99 3e 2e 54 2b 3e
       0.1894411 0.44662365 0.30077592 0.16731331
0001c0 c8 e1 be 3d 95 c0 00 3e a3 9a 44 3e 32 71 a0 3c
       0.09320408 0.12573464 0.19199614 0.019585226
0001d0 6d d8 8c 3e 75 3e 05 3f df 62 97 3d 41 d3 07 be
       0.2750887 0.52048427 0.07391905 -0.1326418
0001e0 56 87 0b 3f 8c 75 af 3e 74 ee 70 3e 5f 02 c7 3e
       0.5450338 0.3426937 0.23528463 0.38868997
0001f0 1c b5 82 3d 03 6b 44 3d 0b 29 0a 3d 49 55 18 be
       0.063822 0.047953617 0.033730548 -0.14876284
000200 bc e4 b0 be fa 29 2f be e5 e5 03 3f 5d 11 3d 3e
       -0.3454951 -0.17105857 0.51522666 0.18463655
000210 b5 c2 77 3e d1 e5 f7 3d f6 2f 0e bd 2d d3 4b be
       0.24195369 0.12104381 -0.034713708 -0.19904776
000220 d3 1b c5 bd c7 f5 fb bd 85 7b c1 3e 44 2d 94 ba
       -0.09624448 -0.12302738 0.3778955 -0.0011304994
000230 06 d0 8d 3e 53 2e d7 3e b3 b4 ca 3e fc 3e 2a 3e
       0.27697772 0.4202753 0.39590988 0.16625589
000240 c0 46 31 3e 90 25 4c 3c b1 90 0e 3d ae 8f d1 3e
       0.17312145 0.0124601275 0.034805957 0.4092993
000250 d6 ca 52 3e 8d 90 35 be 8a 04 66 3e 95 68 26 3e
       0.20585188 -0.17730923 0.22462669 0.16250832
000260 9e 51 26 3e 7a 0c b4 3e ec e3 b2 3e ca 01 4a 3e
       0.16242072 0.3516577 0.34939516 0.19727245
000270 a9 e1 ef 3d 51 4c 2e 3e 5b 30 1f 3e b0 bc 56 bd
       0.11712963 0.170213 0.1554579 -0.05242604
000280 08 0b 31 3e 06 a5 fc bd 33 a6 ae bc 1e ba 75 3e
       0.17289364 -0.12336163 -0.021319484 0.2399678
000290 7d 53 c0 3e 7d db 45 3e df ce 77 3c e8 67 d6 3e
       0.37563697 0.1932201 0.0151250055 0.4187615
0002a0 19 6a ad 3e 3d 99 11 3e f7 c0 2d 3e 39 36 82 bf
       0.3387001 0.14218612 0.16968141 -1.0172797
0002b0 7c b4 80 3e 0a 00 d8 3e 93 63 43 3e 4c 0c 7a 3e
       0.251377 0.4218753 0.19080953 0.24418753
0002c0 54 50 34 bb c3 6e 93 3d d1 fa 3d 3e 41 66 7e 3d
       -0.00275137 0.071988605 0.1855271 0.062109236
0002d0 c5 14 1c 3e ba da ec 3e d5 0c 68 3e ad a9 5d be
       0.15242298 0.46260625 0.22661145 -0.21646757
0002e0 bc 73 08 3f 82 8e fe 3d 4d d5 ed 3d fc 57 43 3e
       0.53301597 0.12429525 0.116129495 0.19076532
0002f0 ad 06 5a 3e 98 8e a8 bd b5 c5 cd 3d 12 2b d4 bc
       0.21291609 -0.082303226 0.10047475 -0.025899444
000300 47 a7 05 bc 15 a8 00 be da a3 01 3f 3a 2a 21 3e
       -0.008157558 -0.12564118 0.5064064 0.15738764
000310 2e 9c 83 3e a0 65 21 3e 14 c3 1d 3e 79 6a 01 3e
       0.25705093 0.15761423 0.15406448 0.12638272
000320 e8 c5 5c 3c fd cb e4 3b 21 9b a2 3e 18 ce 97 3e
       0.013474919 0.006982325 0.3175898 0.29649425
000330 f0 3a ac 3e c7 73 c1 3e 40 f3 04 3f d6 c9 85 3e
       0.33638716 0.37783644 0.5193367 0.2613055
000340 98 de a5 3e 43 59 c8 3d 8c 80 e4 3c f3 be 4c 3e
       0.32396388 0.0978265 0.027893327 0.19994716
000350 51 7f ca 3e d7 68 8f 3e 2b 65 98 3e fd 6f 4b 3e
       0.3955026 0.28009674 0.29764685 0.19866939
000360 c1 49 61 3e e3 41 67 3e 2e 55 2e 3e 2e b8 59 3e
       0.22000791 0.22583728 0.17024681 0.21261665
000370 44 0b 76 3e c0 84 7f 3e 6c 22 94 3d 19 4e 34 3d
       0.24027735 0.24952984 0.07233128 0.044019792
000380 30 c3 31 3e 57 60 8c 3c c3 b0 c7 3e ed 9d 8d 3e
       0.17359614 0.017135782 0.39002046 0.2765955
000390 2b a3 95 3e 61 18 46 3e a0 56 2a 3e 26 cf 27 3e
       0.2922605 0.19345237 0.16634607 0.16387615
0003a0 fc 87 ec 3e 19 43 99 3e 48 e1 2b 3e 2b f9 0b bf
       0.46197498 0.29934004 0.16785157 -0.54677075
0003b0 54 f5 b8 3e e1 f6 1a 3f 1a 45 c7 3e 84 44 87 3e
       0.3612467 0.6053296 0.38919908 0.2641946
0003c0 d2 d0 52 3e 59 a9 1b 3e 3e 60 2d 3e cc 5b ac 3c
       0.20587471 0.1520132 0.16931245 0.021039866
0003d0 7c 57 69 3e cb 94 31 3e 57 6b 88 3e 9c 4b 96 3e
       0.22787279 0.17341916 0.26644394 0.2935456
0003e0 4e 60 db 3e 69 e2 ac 3e c5 44 a1 3e 42 54 27 3f
       0.42846912 0.33766487 0.3149778 0.6536294
0003f0 fd 43 10 3e e0 f5 6c 3d b2 14 52 3e cc 77 0b 3e
       0.14088435 0.057851672 0.20515707 0.13619918

fc2.bias f4 [64]
000000 e4 10 7b be e3 50 95 be 47 56 f2 be bf d2 a5 bd
       -0.24518162 -0.29163274 -0.4733145 -0.08096837
000010 8d a8 ae 3d 22 dc 00 bf 52 04 bc be 30 2c 1b 3e
       0.08528242 -0.50335896 -0.36722046 0.15153575
000020 9c 11 53 3d 7f 55 5a be e4 d6 22 3e 08 85 c0 be
       0.051530465 -0.21321677 0.15902287 -0.37601495
000030 e4 06 bb be 23 ed a8 be 52 ae a6 be af 2b 88 be
       -0.36528695 -0.3299342 -0.3255487 -0.26595828
000040 52 45 50 be 46 78 e9 be d1 64 0f 3c bb e3 c7 be
       -0.20338944 -0.45599574 0.008752064 -0.39040932
000050 0e 13 81 3d a7 35 8c 3c c7 c9 57 3c 6c cc 04 bf
       0.063024625 0.017115427 0.013170666 -0.51874423
000060 28 81 e9 3d 71 db 5b bd f5 d3 de 3b c6 79 aa bd
       0.11401588 -0.053676073 0.0068001696 -0.08324008
000070 ae ef a0 be 7d a2 ae be e0 70 1c be ae 01 16 3e
       -0.3143286 -0.34108344 -0.15277433 0.14649078
000080 97 cd 8e be 33 95 25 3e ed d3 dc be 1b 6c a6 bd
       -0.27891228 0.16170196 -0.43130437 -0.08126088
000090 79 f3 3f be 88 ac d4 be d1 b3 c7 3d d6 f0 c5 bd
       -0.18745221 -0.4153788 0.09751094 -0.096650764
0000a0 1b fa 99 be 79 72 24 bd 4c ae 0b be 22 22 de bc
       -0.30073628 -0.040148232 -0.13640708 -0.027115885
0000b0 8d 92 b0 3d 4f ac ef be 6d 79 9b 3d 80 dd ba bd
       0.08621702 -0.4681115 0.075915195 -0.09124279
0000c0 c7 e1 c3 be 8f 4a 92 be 97 23 89 bd ac e5 e2 be
       -0.38258192 -0.2857251 -0.06696241 -0.4431585
0000d0 19 e0 0a bd d2 58 9c be 4e 96 80 be 98 ec df be
       -0.033905122 -0.30536515 -0.25114673 -0.43735194
0000e0 f6 40 0c bd 22 c0 7c bd f6 88 7a bd 6f db e2 be
       -0.03424164 -0.06170667 -0.061165772 -0.4430804
0000f0 61 e2 ac 3e 5c dd b3 be 2b b8 1d bf a8 17 94 be
       0.33766463 -0.3512982 -0.61609143 -0.28924298

fc3.weight f4 [64, 64]
000000 f2 03 b0 3d 54 db d9 3d 88 2a b8 3d 60 99 40 bd
       0.085945025 0.10637537 0.08992487 -0.04702127
000010 6c e4 02 3d 0e 73 81 3d 5d 6b 75 3d 91 0b b2 bd
       0.03195612 0.06320773 0.059916843 -0.08693612
000020 51 30 cf bd df 42 70 bd 60 c4 9d bb e2 6b 8f bd
       -0.101166375 -0.058657523 -0.0048146695 -0.07002999
000030 ec b9 c4 bd f8 ca 54 3d 11 64 a8 3d 4f 3a 5c bd
       -0.09605774 0.05195138 0.08222211 -0.053766545
000040 33 47 d8 bd d2 4f d7 3b c7 f5 2c 3b 00 10 68 3d
       -0.10560455 0.0065707946 0.0026391612 0.056655884
000050 5a 0a 0f be ef 68 a3 bd e7 7f df 3b 9c c6 34 bd
       -0.13968793 -0.07978999 0.006820667 -0.04413472
000060 70 82 d5 3d b8 82 9e 3d 80 bd 82 3b d7 eb 16 3d
       0.104252696 0.077397764 0.0039898753 0.03684601
000070 19 e8 fb bd fb 03 ac bd 6c 87 23 3d 42 d2 b5 3d
       -0.123001285 -0.08399197 0.03992407 0.08877994
000080 28 95 99 3c 68 48 40 bd b0 27 d0 3d f9 d1 db 3c
       0.018747881 -0.046944052 0.1016382 0.026833521
000090 7d 14 1c 39 d8 cc cc bd 65 3a a4 bc 02 1b ca 3d
       0.00014884952 -0.10000008 -0.020047376 0.098684326
0000a0 3c 89 e3 bc 3c 7a 84 bd 31 1d f4 3b 46 0a 6f bd
       -0.0277754 -0.06468627 0.007449769 -0.058359407
0000b0 f4 e8 0e 3d e9 67 99 3d fa 86 6c bd 4c d2 8b bd
       0.03489013 0.074905224 -0.05774591 -0.0682722
0000c0 26 46 9a bb 98 03 07 bc 7c 09 65 3d dd a9 92 3d
       -0.0047080694 -0.008240603 0.055917248 0.07161305
0000d0 08 3c a4 3c 38 65 01 3d 34 d2 93 bd fa 7c d5 bd
       0.020048156 0.03159067 -0.072178274 -0.10424228
0000e0 63 9e 9c bd b5 bb c6 ba fb 36 d8 3d 3e d9 ce bd
       -0.07647397 -0.0015162142 0.10557362 -0.101000294
0000f0 d1 a2 a5 3b 16 e2 3b bd 30 b5 16 3d a4 bd 89 bc
       0.0050548096 -0.04586991 0.036793888 -0.01681406
000100 7c ab 46 3d e9 21 ce 3d f0 b2 90 3d 1d dd 08 be
       0.048503384 0.100650616 0.070653796 -0.13365598
000110 4b f1 86 bc f5 e0 c1 bd fb 7f 37 bc 0c d7 e2 bd
       -0.01647248 -0.09466735 -0.0111999465 -0.11076173
000120 74 7a 5b bd b2 58 95 3d de 68 df bd fb 84 fc bc
       -0.053583577 0.07292308 -0.10908674 -0.030825129
000130 4b 28 14 be fc e6 17 3d 8c 0e 90 3d 84 21 2e 3d
       -0.14468496 0.03708552 0.070340246 0.04251243
000140 68 d9 bf bd 7e 0d 52 3d 1c 3d 94 3d 47 0b df bc
       -0.09367639 0.0512824 0.07238218 -0.027227057
000150 2a 1d b0 bc de 60 92 bd 91 ad d8 bd 4c 83 04 3d
       -0.021498282 -0.07147382 -0.1057998 0.032351777
000160 f8 b6 17 bc dc 49 a2 bd a4 1a a6 bd 95 36 b5 3c
       -0.009259932 -0.07924244 -0.0811055 0.022120753
000170 46 43 fa 3c fe fa af 3d 8e 7f d8 bd 15 e9 58 bd
       0.030549657 0.08592795 -0.10571204 -0.05295666
000180 71 54 b8 3d db 04 bd bc 99 5d 00 be 5e 7c 0d be
       0.09000481 -0.023073604 -0.12535705 -0.13816974
000190 47 21 64 3d a1 03 1c bd 7f e3 73 3d ea c4 e8 bd
       0.0556958 -0.0380894 0.05954313 -0.113656834
0001a0 fe eb 17 be a7 b8 a3 bc 41 8d 92 bc 9b 3b a1 bd
       -0.14836118 -0.01998551 -0.01788962 -0.07872697
0001b0 02 56 2e be 28 5a 92 bd 14 64 ae 3d e5 f4 ac 3d
       -0.17024997 -0.07146102 0.08515182 0.084451474
0001c0 c0 f5 10 3d 94 dc cd bc 48 fa e5 bd ea c9 d4 bd
       0.035390615 -0.025129594 -0.11229378 -0.103900746
0001d0 60 fa 2f bc df 60 05 bd 9b 2a 45 bd 7e 26 c8 bd
       -0.010740846 -0.032563087 -0.048136335 -0.09772967
0001e0 86 c5 74 b7 c6 ba b1 bd 69 58 9b 3d f5 e0 22 bd
       -1.4589523e-05 -0.08678202 0.07585222 -0.039765317
0001f0 bc c8 3e be 86 8c 2e 3d 10 a4 a0 3d af 62 0d be
       -0.18631262 0.042614482 0.078437924 -0.13807176
000200 26 d1 2f 3e f5 f4 63 3e e6 2d 1a 3f b3 0d 8f 3e
       0.17169628 0.22261412 0.60226285 0.2794014
000210 39 ee f8 3d 6b 24 29 3f 03 a2 9a 3e 61 97 6d 3e
       0.12154812 0.66071194 0.3020173 0.23202278
000220 bc ac 11 3e 58 76 57 3e d8 4f fa 3d d4 79 7c 3e
       0.14226049 0.21041238 0.1222226 0.24655849
000230 5b d4 74 3e c9 a0 9f 3e 4d b2 25 3e eb bb 4a 3e
       0.23909132 0.31177357 0.16181298 0.19798248
000240 8d e0 81 3e e1 6d b1 3e be fd 97 3e a9 78 f6 3e
       0.2536663 0.34654143 0.29685777 0.4813893
000250 d7 bd 35 3e cb 34 e8 3d 0e 63 10 3e a1 52 1c 3f
       0.177482 0.113381945 0.14100286 0.6106358
000260 10 4f 10 3e 84 ab 31 3e 61 2d 26 3e ed 5b a7 3d
       0.1409266 0.17350584 0.16228248 0.0817183
000270 3e 1b 03 3e e7 82 82 3e 7d ba de 3d 9a df 78 3e
       0.12803361 0.25490496 0.108754136 0.24304047
000280 23 c2 8f 3e 23 2f 8f 3e ad e4 9d 3e e4 f2 71 3e
       0.28077802 0.2796565 0.30838528 0.23627812
000290 f8 1a af 3d 80 fc ec 3e 8b 2a 77 3e 8c 05 92 ba
       0.08550066 0.46286392 0.24137323 -0.0011140569
0002a0 c1 b4 a3 3e ef f8 6a 3e 5e ef 4f 3e 57 3f 90 3e
       0.31973842 0.22946523 0.20306155 0.28173324
0002b0 2a f3 a0 3d 11 3b 9b 3e 99 8c 93 bf 80 c1 9d 3e
       0.0785888 0.30318502 -1.1527282 0.3081169
0002c0 40 53 d3 3e 60 1c 8b 3e 98 7f ac 3d fe 59 d2 3e
       0.41274452 0.27170086 0.08422774 0.41084284
0002d0 33 fe 6e 3d a1 2d 8f 3e a7 3a 6b bf 9f 4e 2c 3f
       0.058347892 0.279645 -0.9188637 0.67307466
0002e0 38 f5 06 bf 66 7b d6 3d 6a 18 49 3e 00 67 d1 3e
       -0.52717924 0.10472755 0.1963822 0.40898895
0002f0 ce 1b 41 bf 23 c9 89 3e 9d 17 80 3f 5b 79 eb 3e
       -0.7543305 0.26911268 1.0007206 0.45991024
000300 cc e4 c1 bd 38 16 f0 3c 80 bd 1d bd 00 f7 ec 3b
       -0.09467468 0.02930747 -0.0385108 0.007231593
000310 b0 09 7f 3c 48 4d 04 bd c8 e3 71 bd 48 e6 d8 3d
       0.0155662745 -0.032300264 -0.05905512 0.10590798
000320 4c 4f 7f bd 5c 79 a7 3d f2 1d fa bd 28 5b e5 bc
       -0.062331483 0.08177444 -0.12212743 -0.027997568
000330 0c cd 50 bd 00 c3 e8 bb a0 72 f4 bc 68 d9 23 bd
       -0.050976798 -0.007103324 -0.029839814 -0.040002257
000340 20 c0 c5 bd b4 54 73 3d 96 3f f6 bd 74 78 87 3d
       -0.096557856 0.05940695 -0.12023847 0.066147715
000350 5c 29 5f bd a6 d1 81 bd 70 a8 2e 3c d0 fb 91 3d
       -0.054482803 -0.063388154 0.010660276 0.071281075
000360 a0 6b d6 bd d8 d8 b8 3d ca 5c a9 3d b2 c5 ce bd
       -0.104697466 0.09025735 0.08269651 -0.10096301
000370 40 2c fd 3b 74 20 2d 3d 88 2b 69 bd 98 3d 48 3d
       0.0077262223 0.042267278 -0.05692628 0.048886865
000380 86 b9 ed bd 30 41 99 3c 60 65 c3 bc d8 47 9a 3c
       -0.116076514 0.018707842 -0.02385205 0.018833086
000390 84 7d dd 3d 20 58 51 3d 42 5d a0 bd fe f2 b6 3d
       0.10814956 0.051109433 -0.078302875 0.08933066
0003a0 1c fd c0 bd c0 22 76 bb 32 3c c7 3d dc 35 4b bd
       -0.09423277 -0.0037557334 0.09728278 -0.04961191
0003b0 a0 9c ce 3b 66 11 ee bd f8 24 d1 bc 28 98 36 3d
       0.0063052922 -0.11624412 -0.025530323 0.0445787
0003c0 80 6e be bd e0 8b 76 3c 78 e3 61 3d da 79 df 3d
       -0.0929842 0.015047997 0.05514857 0.10911913
0003d0 92 3c dc 3d 74 a7 f6 bd 7a cc ad bd 00 f1 60 3c
       0.1075374 -0.12043658 -0.084862664 0.013729334
0003e0 48 a7 26 3d 86 9b de 3d c8 4f f8 3c 54 7b 93 bd
       0.040686876 0.108695075 0.03031148 -0.07201257
0003f0 68 c6 bc bd 60 3f 2b 3c c2 32 ac bd 88 9c 34 3d
       -0.092175305 0.0104521215 -0.08408119 0.044094592

fc3.bias f4 [64]
000000 f8 4a cc bd 86 f6 4b 3d 4c d6 89 be 04 56 6a bd
       -0.09975237 0.04979565 -0.26921308 -0.057210937
000010 be f6 79 3e f0 c4 1f be 86 80 47 3f 97 e1 57 bc
       0.24410531 -0.1560247 0.77930486 -0.013176343
000020 da f0 82 bd 53 81 06 3e 96 3c b5 be 8f b3 d9 be
       -0.06393595 0.13135271 -0.35397786 -0.42519805
000030 70 c6 76 3d 70 97 91 bd fe 1f 10 bd 2e b6 bc bd
       0.06024784 -0.071089625 -0.03518676 -0.092144355
000040 0a e6 d4 3d 0c 8e 70 3e c9 6f 57 be b1 dd 46 3e
       0.10395439 0.23491687 -0.21038736 0.19420506
000050 68 cf 06 be 78 1b be 3d 02 70 47 3e 3a d2 0e 3e
       -0.13165057 0.09282583 0.19476321 0.13947383
000060 5b a6 fb bd 94 9a 15 3d 5a c6 d4 3d 30 98 9f be
       -0.12287589 0.03652437 0.10389395 -0.31170797
000070 9b f4 e4 bd 7c 52 00 3f 21 ea 25 be c8 fa 57 3f
       -0.11179467 0.5012586 -0.16202594 0.84367037
000080 f2 f1 14 be 38 f3 92 3c d6 35 32 3d 26 54 11 3e
       -0.1454542 0.017938241 0.043508373 0.14192256
000090 61 65 32 3e a8 b1 11 3d e7 18 c5 bd 98 aa 44 3f
       0.17421485 0.035569817 -0.0962389 0.76822805
0000a0 a2 c4 32 3e 4c 2e 01 3e 3a 36 9b 3e 6d af 57 bc
       0.17457822 0.12615317 0.3031481 -0.013164383
0000b0 cc 9a 94 3e 3c b1 83 3e ed 59 1a be 3d 8c 08 3d
       0.2902435 0.25721157 -0.15073366 0.033336867
0000c0 d8 df 3b 3d 99 8d 0e bd 95 13 9d be 45 7d 05 3e
       0.04586777 -0.034803007 -0.30679002 0.13036068
0000d0 3a a9 1e bc fa 8f f8 bd 8a aa c9 be 47 f6 e8 bc
       -0.009683901 -0.12136836 -0.39387923 -0.028437747
0000e0 05 ab 17 3d 39 72 14 3e e6 f7 a4 bd 2c 24 8f bd
       0.03702833 0.14496697 -0.080550954 -0.06989321
0000f0 c9 56 17 3e 19 4b d4 bd 5a d1 dd bd d8 8a 66 3d
       0.147792 -0.10365886 -0.10830946 0.056284755

fc4.weight f4 [1, 64]
000000 d4 25 0c bd c1 82 1c bd 67 33 bd 3e b0 cf 0c bd
       -0.034215763 -0.038210634 0.3695328 -0.034377754
000010 a6 bd c4 3e 86 b2 c4 3e 6d 30 72 3f d8 4c 5e bd
       0.3842594 0.38417453 0.9460514 -0.054272503
000020 bd 03 dd 3e a4 65 de 3e 64 84 b0 be c7 33 97 be
       0.43166915 0.4343692 -0.34476006 -0.2953169
000030 54 fd b2 3e ce 60 67 bd 63 a8 19 bd 88 4e b3 3e
       0.349589 -0.056488805 -0.0375141 0.35020852
000040 2d b6 d7 3e 99 40 c2 3e 87 cf da 3e a7 2d 64 bf
       0.42131177 0.3793991 0.42736456 -0.8913216
000050 5e 18 c1 3e 42 c0 e6 3e 4d 71 d6 3e 23 1f ce 3e
       0.37713903 0.45068556 0.41883317 0.4025813
000060 fe a3 2a bd 10 a2 e0 3e c3 49 d9 3e 62 ac a3 3e
       -0.0416603 0.43873644 0.42439088 0.31967455
000070 1f 17 02 bc 6b 20 33 bf 98 7b dc 3e 58 05 8f 3f
       -0.007940083 -0.6997134 0.43063045 1.1173506
000080 11 f9 a4 3e 72 84 15 bc dd 11 e1 3e ea 4d aa 3e
       0.32221273 -0.009125816 0.4395894 0.3326257
000090 fd 15 91 bf c2 1e c4 3e fd 44 ab bd 88 f9 58 3f
       -1.1334835 0.38304716 -0.08362768 0.84755754
0000a0 39 c3 60 bf 0c 71 b7 3e 3e 57 9a 3e fc 0a 6d bd
       -0.87797886 0.35828435 0.30144686 -0.057871804
0000b0 ed 65 bb 3e 0b 3a aa 3e 52 ab 08 bd 2d b2 fb bc
       0.366012 0.33247408 -0.03336651 -0.03072461
0000c0 22 12 c0 bb c8 c5 bc 3e bd 70 a3 be ba 5d c0 3e
       -0.0058615366 0.36869645 -0.3192195 0.37571508
0000d0 e1 04 ba 3e 58 94 cf 3e ec 66 0c bf cb 0d ac 3e
       0.36331847 0.40542865 -0.54844546 0.33604273
0000e0 8c f3 b7 3e 59 67 b3 3e 07 33 21 bd da 20 d2 3e
       0.35928 0.35039786 -0.039355304 0.4104069
0000f0 5a de d4 3e c0 65 e8 3e 64 0b 6d 3d c4 76 c2 3e
       0.4157589 0.4539013 0.05787219 0.37981236
