src/Actividad8_ProyectoFinal/bike_demand_best_nn_model_.pth (torch, 47311 bytes, 7 tensors)

fc1.weight f4 [64, 44]
0.05881601 -0.023712933 -0.076276034 0.023315247 -0.010772857 -0.10334139 -0.039645903 0.032923933
-0.1236096 -0.099622905 0.14487927 0.44170752 -0.18770325 0.09770881 -0.38408726 -0.25946492
-0.25801474 -0.4329539 -0.2377242 0.27150998 0.44408968 0.4367844 -0.066047296 -0.32711336
-0.15155576 0.2979747 -0.09143378 0.25948897 0.23780167 0.15097526 0.08637798 0.107965425
0.23134722 -0.18741114 0.09489696 -0.026913693 0.043230094 -0.19045375 0.08536573 0.24906093
0.01982877 -0.6303691 0.30858395 -0.29990044 0.0688496 0.094640136 0.012710218 -0.04491675
0.04746531 0.005440336 -0.15005577 0.08109722 -0.14371374 -0.03719449 -0.09596552 -0.06627157
-0.23480684 -0.2557553 -0.34459504 -0.3689055 -0.27391627 -0.20608526 0.09336934 0.5241941
0.4945077 -0.21909422 -0.25422496 -0.25962037 -0.13843995 -0.25502184 -0.2685123 -0.19974644
-0.26804647 0.40785605 0.51874155 0.4288156 0.3012773 -0.25762826 -0.31539303 -0.06662684
0.067771375 0.0017223194 -0.11915622 -0.29895657 -0.29361606 -0.13697761 0.19518673 -0.4272599
0.192321 -0.11626145 0.043775864 -0.032761168 -0.022359574 -0.11272359 -0.82061195 0.20821959
-0.097329214 -0.0141782835 0.0135679515 -0.10893512 -0.13703492 -0.22404999 -0.1565761 -0.18232526
-0.21630661 -0.4659186 0.17662151 0.07417339 0.3359987 0.4119589 0.31523052 0.29968664
0.28306177 0.34800836 0.31871098 -0.0049972744 0.3844747 -0.022095552 -0.06365209 -0.10863863
-0.044808783 -0.07037638 0.024263998 0.033926524 0.120271124 0.19975099 0.23908974 0.13666916
0.09243525 -0.012458768 0.13400938 6.0075472e-05 -0.10906988 0.00024130658 -0.043348905 -0.028176483
-0.007516733 -0.14402483 0.07212439 -0.032992203 -0.091301836 -0.07007013 0.110454254 0.053100236
-0.13962866 -0.31430382 -0.098259084 -0.46324605 -0.4468521 -0.116941586 0.008438967 0.11581644
0.29211056 0.24753498 0.28746238 0.40499535 0.44457397 0.45224005 0.31748345 0.38313314
0.20861502 0.22890331 0.31766763 0.2951805 -0.100419104 -0.08991198 -0.47005793 -0.15916024
-0.09407456 -0.041245412 -0.252032 -0.1999657 -0.04605059 -0.08491969 0.3778461 -0.21188323
0.20748118 0.008682292 -0.07197028 0.06172707 -0.044495247 -0.17796794 0.046668056 0.09292037
0.13323545 0.13727918 -0.34605667 -0.5621173 -0.1803755 -0.050773114 -0.68666613 -0.46380264
-0.5261759 -0.54663056 0.3979326 0.2056335 0.31226712 0.472101 -0.16499175 0.2997017
0.21975948 0.24501792 0.24692224 0.23968533 0.24394982 0.36846253 0.35739085 0.29135388
0.041398376 0.005839741 0.15856409 0.034144834 0.10032328 0.13376704 0.04518532 0.26485926
0.022816345 5.877517e-05 0.006906807 -0.2871542 0.3288322 0.002449 0.026595607 -0.034933474
0.053558324 -0.04540954 -0.13827975 0.20797922 -0.23791406 -0.052748155 -0.20401672 -0.13670121
0.028260909 -0.07536091 -0.6690949 -0.6767599 -0.65625113 0.057304665 0.361063 0.1853743
-0.030405452 -0.18165007 0.56138515 0.5647723 0.6290628 0.49177146 0.31027037 0.38605213
0.27556622 0.01859791 -0.16681312 -0.0424743 -0.037624635 0.2553459 -0.7349846 -0.6851938
00000000: 0ee9 703d a041 c2bc 9c36 9cbd 9eff be3c
00000010: a380 30bc a7a4 d3bd be63 22bd 3fdb 063d
00000020: 0827 fdbd 1807 ccbd 3b5b 143e 7d27 e23e
00000030: 4835 40be 8e1b c83d 16a7 c4be 96d8 84be
00000040: 821a 84be 22ac ddbe f96d 73be 5b03 8b3e
00000050: b95f e33e 34a2 df3e ce43 87bd 677b a7be
00000060: 6f31 1bbe 2490 983e a241 bbbd bddb 843e
00000070: 4882 733e 4299 1a3e f0e6 b03d fa1c dd3d
00000080: 49e6 6c3e b5e8 3fbe 5659 c23d 1b7a dcbc
00000090: 0a12 313d 4f06 43be 3ad4 ae3d d409 7f3e
000000a0: f26f a23c df5f 21bf b7fe 9d3e 8d8c 99be
000000b0: 0501 8d3d b0d2 c13d 853e 503c a0fa 37bd
000000c0: fc6a 423d d944 b23b 38a8 19be 4d16 a63d
000000d0: b229 13be 4059 18bd 9289 c4bd 64b9 87bd
000000e0: 3471 70be 5cf2 82be c36e b0be 2fe1 bcbe
000000f0: c13e 8cbe 0408 53be 6d38 bf3d 9631 063f
00000100: 1d30 fd3e 3c5a 60be c629 82be f6ec 84be
00000110: 34c3 0dbe 3992 82be 727a 89be 558a 4cbe
00000120: 633d 89be 82d2 d03e 3fcc 043f b88d db3e
00000130: 0541 9a3e dae7 83be 327b a1be a773 88bd
00000140: b8cb 8a3d 73bf e13a 2d08 f4bd d610 99be
00000150: d854 96be dc43 0cbe 08df 473e cfc1 dabe
00000160: ccef 443e 7c1a eebd 524e 333d 9330 06bd
00000170: 6d2b b7bc a0db e6bd a013 52bf 8437 553e
00000180: 8a54 c7bd 084c 68bc 1d4c 5e3c 6019 dfbd
00000190: e252 0cbe 5c6d 65be 7c55 20be 79b3 3abe
000001a0: 7b7f 5dbe e28c eebe 45dc 343e 38e8 973d
000001b0: 0608 ac3e 47ec d23e e565 a13e 8770 993e
000001c0: 79ed 903e 272e b23e 162e a33e 2dc0 a3bb
000001d0: ded9 c43e bb01 b5bc 075c 82bd ee7d debd
000001e0: 6a89 37bd 7e21 90bd 4bc5 c63c 8af6 0a3d
000001f0: b550 f63d 868b 4c3e f1d3 743e 00f3 0b3e
00000200: b14e bd3d dc1f 4cbc c139 093e 8cf9 7b38
00000210: 0760 dfbd 3e07 7d39 9f8e 31bd 5ed2 e6bc
00000220: ed4e f6bb 3f7b 13be f4b5 933d d522 07bd
00000230: 75fc babd ee80 8fbd d735 e23d a27f 593d
00000240: d1fa 0ebe 6eec a0be 0f3c c9bd 962e edbe
00000250: ccc9 e4be 127f efbd 9843 0a3c 2b31 ed3d
00000260: 848f 953e cf79 7d3e 452e 933e 8d5b cf3e
00000270: 339f e33e 028c e73e 318d a23e 072a c43e
00000280: 2d9f 553e a165 6a3e 55a5 a23e e621 973e
00000290: 88a8 cdbd c623 b8bd 6fab f0be e7fa 22be
000002a0: 2aaa c0bd f3f0 28bd 570a 81be cfc3 4cbe
000002b0: 8b9f 3cbd 60ea adbd 0b75 c13e ebf7 58be
000002c0: f275 543e 2c40 0e3c 2765 93bd 86d5 7c3d
000002d0: a640 36bd 3a3d 36be 0127 3f3d 094d be3d
000002e0: e06e 083e ea92 0c3e 572e b1be ebe6 0fbf
000002f0: 5bb4 38be 78f7 4fbd 5ac9 2fbf 8a77 edbe
00000300: 77b3 06bf fbef 0bbf d2bd cb3e 9791 523e
00000310: 7ae1 9f3e 39b7 f13e 99f3 28be 8072 993e
00000320: a108 613e fae5 7a3e 2fd9 7c3e 1270 753e
00000330: fbcd 793e 1fa7 bc3e effb b63e 562c 953e
00000340: 5891 293d 4c5b bf3b a05e 223e 74db 0b3d
00000350: 4b76 cd3d 3afa 083e 3e14 393d a29b 873e
00000360: 58e9 ba3c 5c85 7638 7f52 e23b e005 93be
00000370: b25c a83e 677f 203b 08df d93c 6716 0fbd
00000380: f95f 5b3d 5bff 39bd 3599 0dbe 81f8 543e
00000390: be9f 73be 730e 58bd c2e9 50be 67fb 0bbe
000003a0: 6c83 e73c d256 9abd ce49 2bbf 2340 2dbf
000003b0: 1300 28bf 4cb8 6a3d 40dd b83e c3d2 3d3e
000003c0: db14 f9bc 7a02 3abe f0b6 0f3f eb94 103f
000003d0: 420a 213f 78c9 fb3e c2db 9e3e a0a8 c53e
000003e0: 0417 8d3e a55a 983c 0fd1 2abe 88f9 2dbd
000003f0: 4a1c 1abd b3bc 823e f327 3cbf dc68 2fbf

fc1.bias f4 [64]
-0.27134216 -0.23647602 -0.24038392 -0.14964467 0.076963015 -0.06889097 -0.04032541 0.0638619
-0.10003071 -0.17604421 -0.12011099 -0.11584991 -0.0850828 -0.15355775 -0.2830883 -0.009727102
-0.16969468 0.049719814 -0.1422415 -0.071467616 0.05051202 -0.250029 -0.07087135 -0.053485908
-0.21650635 -0.115527876 0.13096155 -0.38606682 -0.3123925 0.29828402 -0.10068824 -0.28672224
-0.16113332 -0.20326455 -0.2739715 -0.10908407 -0.24890588 -0.28647295 -0.20168652 -0.026455984
-0.21926153 -0.4401481 0.03912967 0.082589634 -0.24529654 -0.18753107 -0.2376928 -0.033592574
-0.08877604 -0.12630695 -0.2635668 -0.22268167 0.0867184 -0.04450069 0.11093622 -0.32651323
-0.2299129 -0.12221465 -0.054729212 -0.27334833 -0.24873945 -0.13418992 0.024458855 -0.010833383
00000000: 5ced 8abe c526 72be 3427 76be 743c 19be
00000010: c99e 9d3d b516 8dbd 422c 25bd 07ca 823d
00000020: e7dc ccbd ef44 34be c0fc f5bd b842 edbd
00000030: e43f aebd 3e3e 1dbe f3f0 90be 6c5e 1fbc
00000040: 71c4 2dbe 01a7 4b3d c1a7 11be 9d5d 92bd
00000050: b1e5 4e3d cd03 80be 0025 91bd 0a14 5bbd
00000060: d7b3 5dbe e199 ecbd c91a 063e 8daa c5be
00000070: e9f1 9fbe afb8 983e a335 cebd 42cd 92be
00000080: 2200 25be 9524 50be fe45 8cbe 7867 dfbd
00000090: 2fe1 7ebe 95ac 92be e986 4ebe 38ba d8bc
000000a0: 1886 60be 175b e1be 6f46 203d c124 a93d
000000b0: 042f 7bbe 2508 40be be65 73be 5e98 09bd
000000c0: 36d0 b5bd 9c56 01be 3af2 86be aa06 64be
000000d0: 6b99 b13d 5b46 36bd 8732 e33d be2c a7be
000000e0: 4a6e 6bbe ad4b fabd bd2b 60bd 50f4 8bbe
000000f0: 8eb5 7ebe 1569 09be f05d c83c 807e 31bc

fc2.weight f4 [64, 64]
0.4363412 0.2938705 0.6404271 0.4297461 -0.08220529 0.12505916 0.042875737 -0.18797201
0.31583083 0.020411221 0.11973314 0.32381865 -0.2545766 0.07917404 0.41571575 -0.03225441
0.115679316 0.03443954 0.31797048 0.09898666 -0.05934324 0.13294926 0.2513541 0.17439424
-0.27039412 0.09834976 -0.0011623871 -0.6528766 0.010628041 -0.57364357 0.32129857 0.62560964
0.12023338 -0.040280357 0.3353064 0.47179294 0.23616481 0.0745163 0.21738088 0.22049363
0.056223102 0.5304774 0.060353898 -0.05810369 0.37056783 0.14787014 0.80105585 0.19928919
0.2722024 0.10626474 0.38632882 0.25470957 0.35446265 0.17027026 0.058198433 0.38860828
0.22887328 0.14419691 0.05194667 0.08672102 0.43675783 0.6419555 -0.0767909 -0.026758665
0.29474014 0.4051783 0.19822563 0.12807715 0.22759229 0.23700187 0.04165771 0.09592118
0.25771037 0.17924628 0.28938496 0.15833616 0.17701532 0.2359411 0.40884492 0.13980788
0.19889662 0.11387811 0.1520905 0.10986089 0.23489092 0.2936607 0.46903038 0.23147921
-0.045347147 0.35239425 0.072607934 -0.35462764 0.29901028 -0.073787056 0.2892341 0.43845636
0.21836469 0.14692448 0.3045096 0.32557967 0.17380992 0.263174 0.32642248 0.09136191
0.12480474 0.38160473 0.067069374 0.14835474 0.3506748 0.2967003 0.3991993 0.14409804
0.26323828 0.09608936 0.23338349 0.25874054 0.10550032 0.086828955 0.2764172 0.3652938
0.263322 0.16272642 0.14295954 0.23862095 0.5559484 0.34849826 0.13588795 0.11074621
0.14865026 0.46252322 0.2509363 0.23471616 0.21930271 0.057930507 0.16697556 0.098023474
0.24373066 0.072397515 0.20766644 0.15320157 -0.019086473 0.13964072 0.5347309 0.24196436
0.16697024 0.20876312 0.06393856 0.045148127 0.053423423 0.3389671 0.33225697 0.08079285
-0.275582 0.18663995 0.11603645 -0.40111822 0.11834115 -0.367932 0.28241023 0.3966628
0.19633447 0.20776409 0.23093012 0.21187498 0.21798128 0.18493341 0.40449813 0.1316262
0.30032337 0.49655834 0.17424932 0.001995853 0.28189713 0.23510864 0.40663487 0.3084304
0.23122473 0.09833776 0.083579145 0.38736424 0.18519513 0.09080743 0.35989103 0.30147767
0.38405845 0.03783377 0.10842229 0.30562055 0.5281199 0.46715292 0.24819642 0.14608614
0.20013043 0.27774927 0.33002606 0.08229279 0.1372458 0.121376365 0.23648863 0.14846067
0.24778949 0.17211148 0.27985048 0.28935197 0.08195599 0.047005843 0.57657886 0.23199703
0.08202118 0.100243144 0.112533845 0.19592561 0.24098657 0.3556436 0.29009253 0.122798726
-0.03310563 0.28435045 0.1312064 -0.22104779 0.12084133 -0.057525367 0.4448566 0.29229602
0.14241178 0.21105735 0.35966125 0.40890938 0.32105905 0.38622856 0.31530812 0.06635729
0.17075421 0.48384008 0.14710717 0.008434247 0.20140572 0.13643722 0.1963854 0.072499774
0.1874993 0.22217421 0.27422175 0.26697487 0.16470544 0.12881476 0.42917842 0.24847281
0.33062008 0.23090972 0.18421718 0.20470367 0.61496544 0.3583951 0.107202955 0.28308132
00000000: 1d68 df3e 3276 963e 08f3 233f ae07 dc3e
00000010: 3f5b a8bd 820f 003e 789e 2f3d bc7b 40be
00000020: 94b4 a13e 6f35 a73c a636 f53d 8fcb a53e
00000030: dd57 82be 0026 a23d b2d8 d43e 331d 04bd
00000040: 47e9 ec3d 7a10 0d3d 07cd a23e 85b9 ca3d
00000050: e611 73bd da23 083e 7cb1 803e 6794 323e
00000060: 1971 8abe 996b c93d 3d5b 98ba ec22 27bf
00000070: 3c21 2e3c 4eda 12bf 3f81 a43e f427 203f
00000080: eb3c f63d 04fd 24bd 48ad ab3e d88e f13e
00000090: 30d5 713e 009c 983d 1899 5e3e 15c9 613e
000000a0: 324a 663d 5ecd 073f a635 773d 23fe 6dbd
000000b0: 11bb bd3e 456b 173e ff11 4d3f 7712 4c3e
000000c0: 1d5e 8b3e 54a1 d93d e4cc c53e 4b69 823e
000000d0: 217c b53e 545b 2e3e 7b61 6e3d aaf7 c63e
000000e0: c25d 6a3e 5ba8 133e 08c6 543d ca9a b13d
000000f0: b99e df3e 3257 243f 8c44 9dbd fd34 dbbc
00000100: 2ee8 963e 8873 cf3e a9fb 4a3e a826 033e
00000110: f40d 693e 9eb0 723e 46a1 2a3d 5372 c43d
00000120: 9df2 833e 568c 373e 442a 943e e022 223e
00000130: 8143 353e 8b9a 713e 1f54 d13e cc29 0f3e
00000140: 8eab 4b3e ed38 e93d 9dbd 1b3e bffe e03d
00000150: 3f87 703e b25a 963e c024 f03e e308 6d3e
00000160: eebd 39bd 056d b43e 78b3 943d c191 b5be
00000170: e017 993e ab1d 97bd 7e16 943e 5a7d e03e
00000180: fe9a 5f3e 5f73 163e afe8 9b3e 61b2 a63e
00000190: 3afb 313e bebe 863e d920 a73e f41b bb3d
000001a0: a199 ff3d b261 c33e ab5b 893d 4eea 173e
000001b0: a68b b33e 1ae9 973e da63 cc3e 708e 133e
000001c0: 2bc7 863e 80ca c43d 15fc 6e3e a479 843e
000001d0: 8d10 d83d 61d3 b13d 8e86 8d3e ca07 bb3e
000001e0: 24d2 863e c1a1 263e fc63 123e 0d59 743e
000001f0: a252 0e3f 5d6e b23e 3626 0b3e e9ce e23d
00000200: c637 183e d8cf ec3e b97a 803e 6f59 703e
00000210: e490 603e 8a48 6d3d a4fb 2a3e 88c0 c83d
00000220: 8894 793e 2645 943d 83a6 543e dfe0 1c3e
00000230: 3c5b 9cbc fafd 0e3e 20e4 083f 81c5 773e
00000240: 3ffa 2a3e 00c6 553e 38f2 823d 3eed 383d
00000250: 85d2 5a3d 198d ad3e 961d aa3e b976 a53d
00000260: 1519 8dbe 8b1e 3f3e 85a4 ed3d 5e5f cdbe
00000270: d85c f23d 9561 bcbe 1398 903e 6317 cb3e
00000280: e70b 493e 1cc0 543e f278 6c3e c1f5 583e
00000290: 7c36 5f3e 2f5f 3d3e 611a cf3e 05c9 063e
000002a0: fcc3 993e e53c fe3e 6a6e 323e dbcc 023b
000002b0: d254 903e 52c0 703e 7232 d03e 97ea 9d3e
000002c0: 2dc6 6c3e 4f65 c93d 8b2b ab3d 9b54 c63e
000002d0: cba3 3d3e 3ff9 b93d a343 b83e 485b 9a3e
000002e0: 4fa3 c43e 95f7 1a3d 810c de3d 4c7a 9c3e
000002f0: de32 073f ab2e ef3e 3427 7e3e 9b97 153e
00000300: feee 4c3e 2735 8e3e 2df9 a83e 1f89 a83d
00000310: 2a8a 0c3e 2c94 f83d 132a 723e 1306 183e
00000320: 87bc 7d3e fe3d 303e 9048 8f3e f125 943e
00000330: 8bd8 a73d 3389 403d ac9a 133f a190 6d3e
00000340: b8fa a73d 474c cd3d 2578 e63d b9a0 483e
00000350: 2fc5 763e eb16 b63e 0287 943e e67d fb3d
00000360: c599 07bd 6296 913e f85a 063e 5a5a 62be
00000370: a97b f73d b89f 6bbd 3fc4 e33e d3a7 953e
00000380: 65d4 113e 6b1f 583e 8525 b83e 925c d13e
00000390: da61 a43e c0bf c53e 1170 a13e 55e6 873d
000003a0: 31da 2e3e e3b9 f73e 43a3 163e cc2f 0a3c
000003b0: 4d3d 4e3e 33b6 0b3e 4119 493e c37a 943d
000003c0: d1ff 3f3e a381 633e cb66 8c3e eeb0 883e
000003d0: 8ba8 283e 04e8 033e 46bd db3e a86f 7e3e
000003e0: 0947 a93e 9973 6c3e 6ea3 3c3e d79d 513e
000003f0: 606e 1d3f 907f b73e 398d db3d 09f0 903e

fc2.bias f4 [64]
-0.4286748 -0.0042988714 -0.32211083 -0.008184668 0.0021678894 0.11079916 -0.17677557 0.039480843
0.14026937 -0.26527014 -0.22681466 -0.33083418 -0.36929217 -0.21122722 -0.28242305 0.04759653
-0.34441712 -0.47883466 0.17267472 0.15376928 -0.28656912 -0.025463914 -0.17307147 -0.2183882
0.023119397 -0.16529787 -0.31669542 0.06243549 -0.13173671 -0.10572784 0.110227354 0.14234109
0.13871774 0.056280404 -0.3836392 0.105337426 -0.4628823 -0.28886485 -0.23190181 -0.46970382
-0.12184455 -0.39650434 -0.0069303126 0.09417484 0.0019211938 -0.029833589 -0.36315465 0.058393184
-0.18668689 -0.08358535 -0.075382896 -0.18654117 -0.4012947 -0.26282588 -0.33546197 0.10370328
-0.1389453 0.0355286 0.07743387 -0.35534894 0.0047582844 -0.1051654 -0.30536267 -0.14193213
00000000: 437b dbbe 8cdd 8cbb b6eb a4be fc18 06bc
00000010: 2613 0e3b acea e23d a804 35be aab6 213d
00000020: c6a2 0f3e 7dd1 87be 1a42 68be 1963 a9be
00000030: dd13 bdbe f34b 58be c199 90be 94f4 423d
00000040: 7157 b0be d129 f5be a4d1 303e b275 1d3e
00000050: 30b9 92be b399 d0bc a639 31be 28a1 5fbe
00000060: e464 bd3c d843 29be e725 a2be 5bbc 7f3d
00000070: fde5 06be d687 d8bd e1be e13d ddc1 113e
00000080: 060c 0e3e 4886 663d 5b6c c4be 26bb d73d
00000090: e9fe ecbe 18e6 93be ab77 6dbe 057d f0be
000000a0: a389 f9bd 9e02 cbbe ad17 e3bb bdde c03d
000000b0: 91d0 fb3a 9265 f4bc 68ef b9be b12d 6f3d
000000c0: d92a 3fbe cc2e abbd 5962 9abd a604 3fbe
000000d0: 8076 cdbe 1d91 86be acc1 abbe 6362 d43d
000000e0: ad47 0ebe 7086 113d a695 9e3d 4cf0 b5be
000000f0: 62eb 9b3b f560 d7bd 7f58 9cbe a856 11be

fc3.weight f4 [64, 64]
0.44418797 0.14737603 0.18170872 0.29649925 0.30284557 0.15521516 0.1438472 0.2656737
0.65018517 0.40865618 0.22119792 0.3821983 0.44006482 0.42057544 -1.184631 0.22532162
0.4314767 1.24914 0.7140553 0.3173546 0.38609338 0.26276532 0.1571426 0.22371805
0.21162708 0.24320897 0.70659524 0.12183505 0.12760222 -0.6195601 -1.0094254 0.20050938
0.34515738 0.3448556 0.554966 0.26911438 0.5717657 0.3040607 0.3425701 1.1850737
0.072458714 0.69634366 0.31974277 0.24287093 0.11447393 0.23557365 0.47897685 0.2177434
0.31897613 0.20871928 0.323254 0.35752487 0.34874025 0.34354642 0.47806022 0.23980153
0.25916514 0.16033764 0.12959954 0.35130143 0.264602 0.12050927 0.3767769 -0.7377134
0.45974705 0.119331375 0.24879874 0.21723625 0.112997755 0.2913237 0.13502015 0.087684005
0.35946405 0.25308365 0.44337627 0.35278508 0.33503917 0.28876 -1.2238392 0.33100724
0.4751411 1.3343731 0.6194275 0.30798155 0.34509388 0.13071966 0.2657189 0.36626783
0.19832988 0.22728501 0.6778323 0.08493947 0.29444987 -0.59577996 -1.2521341 0.24624966
0.23146397 0.11793136 0.59755635 0.21228758 0.72176665 0.39573154 0.3372524 1.2329928
0.040496003 0.79822767 0.22358854 0.21128058 0.26170078 0.27139506 0.48261595 0.084473714
0.18900792 0.25922957 0.35095415 0.22887023 0.44595495 0.44216517 0.33390597 0.24624081
0.35921916 0.12193027 0.16619562 0.2667901 0.09491347 0.096990325 0.436371 -0.6950916
0.59810793 0.22530808 0.37896568 0.11466186 0.15694335 0.2873486 0.19368437 0.20947729
0.5191135 0.36392948 0.39859062 0.33793205 0.3781352 0.37614772 -0.97307074 0.3528382
0.47581956 1.3071302 0.77852213 0.21867068 0.29309988 0.18532804 0.20876957 0.30269834
0.32419482 0.15029745 0.7933468 0.2574664 0.26570705 -0.5314219 -1.0616305 0.13823918
0.24904896 0.33019206 0.6007075 0.32285678 0.57721514 0.28636637 0.397125 1.1422685
0.10023359 0.9357069 0.13415289 0.29062438 0.3057992 0.32067227 0.38953277 0.18990558
0.2188361 0.2836469 0.38232514 0.33362257 0.4347505 0.49099216 0.26315552 0.13486995
0.21400832 0.11063011 0.2278967 0.37016997 0.19920975 0.16002722 0.5059397 -0.7918565
0.6258403 0.17477919 0.23494968 0.24572684 0.26725388 0.17997478 0.2134081 0.16877328
0.44078836 0.3745366 0.3847439 0.42934904 0.4082483 0.34556553 -1.1560065 0.14815398
0.40515524 1.3174587 0.70731664 0.10444207 0.365984 0.29721066 0.23262082 0.43352783
0.17069274 0.13548073 0.7605854 0.11123707 0.26549113 -0.5708231 -1.1037524 0.16249746
0.15843567 0.3230684 0.5887304 0.119108275 0.72013503 0.44700447 0.40281755 1.2628071
-0.072622865 0.765624 0.32898664 0.3410196 0.16352278 0.30857435 0.32872304 0.15978391
0.3757579 0.2383941 0.25683057 0.14039524 0.25364944 0.3491869 0.37142482 0.13784268
0.22238494 0.13142338 0.2927069 0.2792302 0.1314623 0.16450486 0.277212 -0.60302806
00000000: 9b6c e33e bee9 163e da11 3a3e c0ce 973e
00000010: 930e 9b3e b9f0 1e3e ae4c 133e 6206 883e
00000020: 8972 263f 623b d13e b581 623e 7faf c33e
00000030: 2d50 e13e aa55 d73e fda1 97bf b6ba 663e
00000040: 84ea dc3e d2e3 9f3f 54cc 363f 4d7c a23e
00000050: 08ae c53e 2d89 863e fde9 203e 5816 653e
00000060: c5b4 583e c60b 793e 6de3 343f a884 f93d
00000070: 28aa 023e 7e9b 1ebf da34 81bf 5552 4d3e
00000080: 78b8 b03e ea90 b03e 4012 0e3f 5cc9 893e
00000090: 3d5f 123f d8ad 9b3e 5965 af3e 7fb0 973f
000000a0: 3c65 943d 9443 323f 53b5 a33e 28b3 783e
000000b0: 4f71 ea3d 383a 713e 743c f53e 20f8 5e3e
000000c0: d750 a33e 82ba 553e 8c81 a53e 800d b73e
000000d0: 158e b23e 51e5 af3e 4fc4 f43e 888e 753e
000000e0: 4bb1 843e 8d2f 243e beb5 043e c8dd b33e
000000f0: ea79 873e 90cd f63d e7e8 c03e c9da 3cbf
00000100: f763 eb3e 0264 f43d 19c5 7e3e 2e73 5e3e
00000110: 5e6b e73d 6128 953e b942 0a3e ac93 b33d
00000120: ac0b b83e 2e94 813e 3702 e33e 3fa0 b43e
00000130: 418a ab3e 5ad8 933e c3a6 9cbf c879 a93e
00000140: b245 f33e bdcc aa3f cd92 1e3f c2af 9d3e
00000150: 25b0 b03e 60db 053e 4f0c 883e 7587 bb3e
00000160: fd16 4b3e 67bd 683e 6b86 2d3f bff4 ad3d
00000170: 22c2 963e 0985 18bf ee45 a0bf df28 7c3e
00000180: e404 6d3e ff85 f13d 74f9 183f ea61 593e
00000190: b3c5 383f 539d ca3e 59ac ac3e b5d2 9d3f
000001a0: 23df 253d a658 4c3f 65f4 643e f059 583e
000001b0: a5fd 853e 4bf4 8a3e 7019 f73e 8e00 ad3d
000001c0: 4b8b 413e bdb9 843e 43b0 b33e f55c 6a3e
000001d0: 3554 e43e 7963 e23e b9f5 aa3e 8d26 7c3e
000001e0: 93eb b73e 94b6 f93d 2f2f 2a3e b698 883e
000001f0: fe61 c23d dda2 c63d 056c df3e 86f1 31bf
00000200: 9a1d 193f 29b7 663e ca07 c23e d6d3 ea3d
00000210: c2b5 203e 5b1f 933e 3255 463e 3781 563e
00000220: 9fe4 043f f754 ba3e 1214 cc3e 6e05 ad3e
00000230: f09a c13e 6f96 c03e 2a1b 79bf 35a7 b43e
00000240: 9f9e f33e 0b50 a73f 3a4d 473f 35eb 5f3e
00000250: 3011 963e a2c6 3d3e b1c7 553e 47fb 9a3e
00000260: ddfc a53e 93e7 193e c718 4b3f a3d2 833e
00000270: c10a 883e 440b 08bf 82e3 87bf 928e 0d3e
00000280: b106 7f3e ef0e a93e f7c7 193f 7c4d a53e
00000290: 5fc4 133f 9d9e 923e f853 cb3e db35 923f
000002a0: 4547 cd3d 7d8a 6f3f 605f 093e b8cc 943e
000002b0: b691 9c3e 282f a43e d770 c73e 9c76 423e
000002c0: 9216 603e 2b3a 913e 1fc0 c33e 94d0 aa3e
000002d0: 9e97 de3e 5363 fb3e 52bc 863e 591b 0a3e
000002e0: ff24 5b3e 0a92 e23d c15d 693e eb86 bd3e
000002f0: a4fd 4b3e 2dde 233e 4485 013f 1cb7 4abf
00000300: 1237 203f 51f9 323e a696 703e d19f 7b3e
00000310: 80d5 883e 4f4b 383e a787 5a3e e7d2 2c3e
00000320: 03af e13e 43c3 bf3e 27fd c43e a3d3 db3e
00000330: ec05 d13e f7ed b03e 05f8 93bf adb5 173e
00000340: 8270 cf3e 7da2 a83f b412 353f b9e5 d53d
00000350: 4162 bb3e ff2b 983e 2734 6e3e 5cf7 dd3e
00000360: 14ca 2e3e 76bb 0a3e bab5 423f 43d0 e33d
00000370: 74ee 873e 7621 12bf c247 8dbf bc65 263e
00000380: f63c 223e 3969 a53e 09b7 163f 0aef f33d
00000390: c55a 383f c5dd e43e 1a3e ce3e aaa3 a13f
000003a0: 4cbb 94bd efff 433f f070 a83e 1f9a ae3e
000003b0: 8472 273e 75fd 9d3e 634e a83e 659e 233e
000003c0: 5763 c03e 951d 743e 4c7f 833e c5c3 0f3e
000003d0: 57de 813e a0c8 b23e 652b be3e a226 0d3e
000003e0: e1b8 633e da93 063e aedd 953e 43f7 8e3e
000003f0: 0e9e 063e f673 283e bbee 8d3e 0c60 1abf

fc3.bias f4 [64]
0.13586178 -0.24739519 0.07419415 0.06567877 0.2338611 0.1943709 -0.05794876 -0.13935164
-0.0631373 0.13870716 0.18343548 -0.29786044 0.15384445 0.11806103 -0.21500587 0.0061624288
-0.040654417 0.17316186 0.18147676 0.080895536 -0.14739181 0.0021638055 -0.009426225 0.14561696
-0.052226357 0.32583222 0.16849688 0.103461415 -0.058306776 -0.09017463 0.10515368 0.19097541
0.07301658 -0.016020743 0.027718723 0.11786282 -0.15752003 -0.120997794 0.17213027 -0.03622851
0.60146 0.120172545 0.20521791 0.2022204 -0.08092341 0.0342515 0.055353735 0.09045987
0.09220853 -0.14781661 0.13732424 0.009319717 -0.08243331 0.19063133 -0.22967084 0.03526236
-0.117096685 0.13617404 -0.17175008 -0.028688878 -0.02691093 0.18040307 0.18679923 -0.22464038
00000000: 5a1f 0b3e 2a55 7dbe 1af3 973d 9782 863d
00000010: 4979 6f3e 2a09 473e ae5b 6dbd 32b2 0ebe
00000020: 214e 81bd 4009 0e3e 83d6 3b3e 2a81 98be
00000030: 6689 1d3e fbc9 f13d 802a 5cbe 33ee c93b
00000040: 3f85 26bd 5851 313e 0bd5 393e 8fac a53d
00000050: e1ed 16be a2ce 0d3b 7470 1abc 9d1c 153e
00000060: 4eeb 55bd 7bd3 a63e 728a 2c3e 94e3 d33d
00000070: 16d3 6ebd 7aad b8bd d05a d73d 0f8f 433e
00000080: b789 953d ef3d 83bc 6012 e33c 1062 f13d
00000090: ee4c 21be b1cd f7bd eb42 303e 5964 14bd
000000a0: 48f9 193f 061d f63d a524 523e dd12 4f3e
000000b0: 2cbb a5bd 4d4b 0c3d 99ba 623d 0643 b93d
000000c0: d3d7 bc3d 3d5d 17be ba9e 0c3e bab1 183c
000000d0: ccd2 a8bd dc34 433e d52e 6bbe 446f 103d
000000e0: 63d0 efbd 3571 0b3e 41df 2fbe f004 ebbc
000000f0: 5074 dcbc 95bb 383e 4c48 3f3e 2108 66be

fc4.weight f4 [1, 64]
0.40397432 0.37235564 0.37047827 0.4515912 -0.437831 0.35537323 -0.019991513 0.3873486
-0.023705434 0.43950284 0.4099008 0.42439628 0.3655208 -0.55547255 0.41541454 0.38381788
-0.1035031 0.40827245 0.40893635 -0.7102906 0.3604132 0.009985587 -0.013335542 0.4421725
-0.061368152 1.1463468 0.44230157 0.38301915 -0.04744397 0.023578957 -0.4599635 0.46332565
0.40250048 -0.02526437 0.4444216 0.3967425 0.004480383 -0.037314154 0.36842826 0.00161021
0.8692016 -0.7105706 0.38088757 0.3567879 -0.071659304 -0.43949863 0.410041 -0.024338158
0.37057012 0.023508422 0.4228068 -0.080473885 0.41194788 0.43964165 0.42081413 0.4553818
-0.05776342 0.42277637 0.3586003 -0.0026921926 -0.39800787 0.37189782 0.3718932 0.3913281
00000000: b9d5 ce3e 66a5 be3e 54af bd3e f636 e73e
00000010: 632b e0be 7bf3 b53e 3ec5 a3bc 8e52 c63e
00000020: e631 c2bc 8406 e13e 85de d13e 784a d93e
00000030: 8b25 bb3e 7333 0ebf 37b1 d43e c783 c43e
00000040: 6ff9 d3bd 1609 d13e 1b60 d13e 9bd5 35bf
00000050: 1488 b83e 969a 233c 517d 5abc 6f64 e23e
00000060: 2c5d 7bbd 7ebb 923f 5a75 e23e 161b c43e
00000070: 9c54 42bd a828 c13c 5680 ebbe 0539 ed3e
00000080: 8b14 ce3e 39f7 cebc 3a8b e33e d521 cb3e
00000090: 2dd0 923b bad6 18bd a1a2 bc3e af0d d33a
000000a0: ff83 5e3f f4e7 35bf b203 c33e e7ac b63e
000000b0: 1dc2 92bd f705 e1be e5f0 d13e d160 c7bc
000000c0: 5ebb bd3e bc94 c03c 227a d83e 7ecf a4bd
000000d0: d5ea d23e b618 e13e f374 d73e ce27 e93e
000000e0: 5699 6cbd 2576 d83e 759a b73e 7f6f 30bb
000000f0: b0c7 cbbe 6469 be3e c968 be3e 285c c83e
