src/Actividad8_ProyectoFinal/bike_demand_best_nn_model.pth (torch, 48612 bytes, 7 tensors)

fc1.weight f4 [64, 44]
0	0xbd7237cc	-0.059135243
1	0x3d8c8f34	0.06863251
2	0xbce429b5	-0.027851919
3	0xbb8a3923	-0.004218237
4	0x3db123b1	0.08649386
5	0x3df382db	0.11890193
6	0xbd8b6938	-0.06807178
7	0x3c4c8ee2	0.012485238
8	0xbe94381b	-0.28949055
9	0xbcfd5cff	-0.030928133
10	0x3d40aadd	0.047037948
11	0xbe07a9d7	-0.13248383
12	0xbdc6288e	-0.09675704
13	0xbeafde1a	-0.34349138
14	0xbea6ea23	-0.32600507
15	0xbec5ca01	-0.3863068
16	0xbeb05860	-0.34442425
17	0xbe99d973	-0.30048713
18	0xbdb7cd8b	-0.08974751
19	0x3ef8a82a	0.485658
20	0x3f1fdbcb	0.6244475
21	0xbdefb963	-0.117052816
22	0xbdce1eea	-0.1006449
23	0xbe2058cb	-0.15658872
24	0x3e995351	0.29946378
25	0xbd9f8108	-0.07788283
26	0xbe13a3c6	-0.14417943
27	0xbde66aee	-0.11250864
28	0x3eb4abd0	0.35287333
29	0x3f0d2bd6	0.55145013
30	0x3ed67db5	0.41892782
31	0x3db5142e	0.088417396
32	0xbdf30f05	-0.11868099
33	0x3eca1389	0.3946803
34	0xbacfb66d	-0.0015847214
35	0xbe292ba2	-0.16520551
36	0x3cb4feea	0.022094209
37	0xbc8b7dbf	-0.017027734
38	0x3d01cb9f	0.03168833
39	0x3d6ed55a	0.058308937
40	0xbeb002cc	-0.34377134
41	0xbe94cf2e	-0.29064316
42	0x3e0f9b9e	0.14024207
43	0xbebc7d7c	-0.36814487
44	0xbc552cb7	-0.013011149
45	0xbd90085d	-0.07032845
46	0x3d078297	0.033083525
47	0xbcfe209b	-0.031021407
48	0x3c9c85b9	0.019106733
49	0xbdf2945f	-0.11844706
50	0x3d6f3a28	0.05840507
51	0x3d837418	0.064186275
52	0x3e275f0d	0.16344853
53	0xbdabea39	-0.08394284
54	0xbd38c5f5	-0.04511066
55	0xbecfdfa7	-0.4060032
56	0xbd5e12a2	-0.05421699
57	0xbe2e8d38	-0.17046058
58	0xbe978036	-0.29590005
59	0xbeb26b6a	-0.34847575
60	0xbec8cc76	-0.3921849
61	0xbf02876a	-0.50987875
62	0xbf2f8a0c	-0.6857002
63	0xbed922e2	-0.42409426
64	0x3dde88fa	0.1086597
65	0x3e89df5c	0.26928222
66	0x3eabd0cf	0.33557746
67	0x3ea7026d	0.32619038
68	0x3ec7be9b	0.39012608
69	0x3e76b5c8	0.24092782
70	0x3ef841e8	0.48487782
71	0x3ed1bb1a	0.4096306
72	0x3e851090	0.259892
73	0x3e4660c0	0.19372845
74	0xbe306569	-0.17226185
75	0x3edd3db3	0.43211135
76	0xbde3a1df	-0.11114859
77	0x3ec3962d	0.38200513
78	0xbf2fbaee	-0.6864461
79	0xbf01aab4	-0.506511
80	0xbd7362c5	-0.059420366
81	0x3cfe8b62	0.031072322
82	0xbe81299c	-0.25227058
83	0x3db9033e	0.090338215
84	0xbe09c608	-0.13454449
85	0x3e8fea8f	0.28108642
86	0x3e725cc7	0.23668204
87	0x3db96cd2	0.09053959
88	0x3e535282	0.20636943
89	0xbd20703d	-0.03916954
90	0xbc52fe93	-0.012878078
91	0x3c80b769	0.015712457
92	0xbd38afd5	-0.04508956
93	0xbe3caca2	-0.18425229
94	0xbcb47740	-0.02202952
95	0x3e6c7c0e	0.23094198
96	0xbf565a1b	-0.8373124
97	0xbe35ff41	-0.17773153
98	0xbe6f7b36	-0.23386845
99	0x3d3060ac	0.043060943
100	0xbe205fdf	-0.15661572
101	0xbe308acf	-0.17240451
102	0xbe945e5a	-0.28978235
103	0xbeb7e7fe	-0.35919183
104	0xbe82c650	-0.25541925
105	0xbe19a201	-0.15003206
106	0xbe882b06	-0.26595324
107	0x3ec396c1	0.38200954
108	0x3eb4c544	0.35306752
109	0xbd822b40	-0.063559055
110	0xbdb3912b	-0.08767923
111	0xbe1f8cd4	-0.15581065
112	0x3d8a6bbb	0.06758829
113	0xbe01a1e8	-0.12659419
114	0xbe968512	-0.293984
115	0xbede0933	-0.43366393
116	0x3d161699	0.036642645
117	0x3ecd582e	0.40106338
118	0x3ed870a6	0.42273444
119	0x3ea5c63f	0.32377812
120	0x3ec2eecf	0.38072821
121	0x3df3d3eb	0.119056545
122	0x3ba8e854	0.005154649
123	0xbe9e807d	-0.30957404
124	0xbe8ccce1	-0.2750006
125	0x3d2fc63c	0.04291366
126	0x3e598492	0.21241978
127	0xbd880c67	-0.066429906
128	0xbe5c27f0	-0.2149961
129	0xbe8e2bc9	-0.2776778
130	0x3ec7054b	0.38871226
131	0xbf00c4c6	-0.5030025
132	0x3b41edaa	0.0029591122
133	0xbcbe36c7	-0.02321948
134	0xbd049cb9	-0.032376025
135	0xbd2a6b66	-0.04160633
136	0x3e2a9aa9	0.1666056
137	0x3e5b2050	0.21399045
138	0xbe81f34e	-0.2538094
139	0xbddda770	-0.10822952
140	0xbe314124	-0.17310005
141	0xbd228691	-0.039679114
142	0x3decde97	0.11565893
143	0x3d951738	0.07279819
144	0x3b558e81	0.003258616
145	0xbed39939	-0.41327837
146	0xbebe3a21	-0.37153724
147	0xbecf083c	-0.4043597
148	0xbeedbdab	-0.46433768
149	0xbe910f74	-0.28332102
150	0xbe11e6d1	-0.14248206
151	0x3ef9d730	0.48796988
152	0x3f04c6cd	0.51865846
153	0xbe4b0821	-0.1982732
154	0xbe2bbeae	-0.16771957
155	0xbde9711a	-0.113985255
156	0xbe0a29cd	-0.13492508
157	0xbe3d88c4	-0.18509203
158	0x3cc1aa81	0.023640873
159	0xbe4960fb	-0.19665901
160	0x3ea583d3	0.32327136
161	0x3f00a964	0.5025847
162	0x3f1630d7	0.58668274
163	0x3edf319a	0.4359253
164	0x3ea4d8d6	0.32196683
165	0x3d9c0843	0.07618763
166	0xbe375206	-0.17902383
167	0xbe2e6bb9	-0.1703328
168	0xbe2b0fb1	-0.16705205
169	0xbd9b88fe	-0.075944886
170	0xbe3e33a2	-0.18574384
171	0xbd84d331	-0.06485594
172	0xbe874b49	-0.26424626
173	0xbe9e6f9f	-0.30944535
174	0x3e27b7ac	0.16378659
175	0xbee1b673	-0.4408451
176	0x3d9bec63	0.076134466
177	0x3d3b0da6	0.045667313
178	0x3b60d5d1	0.0034307132
179	0x3b6acb5c	0.0035826778
180	0x3d4cf24b	0.050035756
181	0xbdcb49a0	-0.09926152
182	0x3ddf0d9a	0.10891266
183	0x3d96fe4d	0.07372723
184	0x3c8f2556	0.017473858
185	0x3daa7479	0.08322997
186	0xbdcaf447	-0.099098735
187	0xbe8adeb6	-0.2712304
188	0xbdc4524b	-0.09586009
189	0xbee6cc27	-0.4507763
190	0xbe2a4421	-0.16627552
191	0xbeea84a4	-0.45804322
192	0x3da4d8e6	0.080491826
193	0xbf1237be	-0.57116306
194	0x3e5148b9	0.20437898
195	0x3e6738e2	0.22580293
196	0x3e730cc3	0.23735337
197	0x3e8d213c	0.27564418
198	0x3e5e5040	0.217103
199	0x3e989d37	0.29807445
200	0x3ef9e564	0.48807824
201	0x3e68723e	0.2269983
202	0x3e4bb674	0.19893819
203	0x3e84cd23	0.25937757
204	0x3e43d4fb	0.19124214
205	0x3ea5dc83	0.323948
206	0x3edb933f	0.42885777
207	0x3e6a3233	0.22870712
208	0x3dada2a6	0.08478288
209	0x3d97c104	0.07409862
210	0x3da3d022	0.079986826
211	0x3dc0a7c5	0.094069995
212	0x3e0952ef	0.13410543
213	0xbe080e27	-0.13286649
214	0xbed44c38	-0.414644
215	0x3de0cdde	0.10976766
216	0x3e3e223f	0.18567751
217	0xbd03978c	-0.03212695
218	0xbe0db20f	-0.13837455
219	0x3d8f8f25	0.070097245
220	0xbc23f88e	-0.0100079905
221	0x3df4488d	0.119279005
222	0xba9ecda2	-0.0012115727
223	0xbcdc022e	-0.026856508
224	0x3e2576a2	0.16158536
225	0x3e1ee892	0.15518406
226	0x3dba4a63	0.090962194
227	0xbee1a5a0	-0.44071674
228	0xbd4e977a	-0.050437428
229	0xbe3b04ef	-0.18263601
230	0xbd805fb0	-0.06268251
231	0xbf1ee70f	-0.6207132
232	0x3da7c981	0.08192731
233	0xbf47259e	-0.77791774
234	0xbf09151a	-0.53547823
235	0xbf156e36	-0.58371294
236	0xbf47de15	-0.78073245
237	0xbf0545b0	-0.5205946
238	0xbf44597a	-0.7669903
239	0x3eb7508a	0.35803634
240	0xbde930f9	-0.11386294
241	0xbd2a79d6	-0.041620098
242	0xbd3bd77c	-0.0458598
243	0x3ea6e672	0.3259769
244	0x3eb608d1	0.355536
245	0x3ecb0384	0.3965112
246	0x3ef778b7	0.48334286
247	0x3efe485f	0.4966459
248	0x3ec4d546	0.38443965
249	0x3ea338f3	0.31879386
250	0x3eeba7f1	0.46026567
251	0x3ea906bf	0.3301296
252	0x3ea13fff	0.31494138
253	0x3e23aeba	0.15984622
254	0x3e3b8596	0.18312678
255	0x3e0ce3c0	0.13758755

fc1.bias f4 [64]
0	0xbe9c94c5	-0.30582252
1	0xbe0b2d63	-0.13591532
2	0xbed7cb59	-0.4214733
3	0xbe8f499c	-0.27985847
4	0xbd3e9227	-0.0465261
5	0xbdd4a9dd	-0.10383961
6	0xbe8d42c6	-0.27590007
7	0xbdb30a6a	-0.08742221
8	0x3d5c858b	0.053838294
9	0x3c55bd40	0.013045609
10	0xbe8b2a47	-0.27180693
11	0xbf00d544	-0.5032542
12	0xbe3d0e3a	-0.18462458
13	0x3d32c53f	0.04364514
14	0xbe70e9d5	-0.235267
15	0x3d791a8c	0.060816333
16	0x3e2a89dd	0.16654153
17	0xbed7caf9	-0.42147043
18	0xbe55ba0f	-0.20871757
19	0xbcb34df4	-0.021887757
20	0xbe0b1fd7	-0.13586365
21	0xbed6500f	-0.41857955
22	0x3d8afa23	0.06785991
23	0xbe5e5d47	-0.2171527
24	0xbec2159c	-0.37907112
25	0xbed3973c	-0.4132632
26	0xbdecc267	-0.11560517
27	0xbebad0f1	-0.36487535
28	0xbf013c1b	-0.5048234
29	0xbe538ae8	-0.20658457
30	0xbd8ec0f8	-0.069703996
31	0xbea871b0	-0.32899237
32	0xbeead923	-0.45868787
33	0xbe91ac4b	-0.28451762
34	0xbe379b46	-0.17930326
35	0x3cb5126a	0.022103507
36	0xbda0fd93	-0.078608654
37	0xbe765ef1	-0.24059655
38	0x3d4b1180	0.049577236
39	0xbe6ccb3c	-0.23124403
40	0xbe0f3c50	-0.13987851
41	0xbe8b480a	-0.272034
42	0xbdb9f6b4	-0.09080258
43	0xbd890176	-0.06689732
44	0xbe81eed6	-0.2537753
45	0x3da9cf03	0.082914375
46	0xbe2990fc	-0.16559213
47	0x3d49afbd	0.049239863
48	0x3d4d6a2e	0.05015009
49	0xbe7293c3	-0.23689179
50	0xbdde1cf9	-0.1084537
51	0xbdd46ee0	-0.1037271
52	0xbe661fef	-0.22473119
53	0xbe06cac2	-0.13163283
54	0xbe12dbf4	-0.14341718
55	0xbe7058a2	-0.2347131
56	0xbdeedf85	-0.11663727
57	0xbe975a13	-0.2956091
58	0xbdf67e71	-0.120358355
59	0xbe45a922	-0.193028
60	0x3c63828b	0.013886104
61	0xbe0f0763	-0.13967662
62	0xbd35a81e	-0.044349782
63	0x3d55f110	0.05223185

fc2.weight f4 [64, 64]
0	0x3ebe114f	0.3712258
1	0x3e8b8fe2	0.2725821
2	0x3ed3f814	0.41400206
3	0x3e9efb77	0.31051227
4	0x3d31395f	0.043267604
5	0x3e5a1ed6	0.21300825
6	0x3ec76f4f	0.3895211
7	0x3e9072d7	0.28212616
8	0x3dece4d5	0.11567084
9	0x3e5fdcc0	0.21861553
10	0x3e94c3d8	0.29055667
11	0x3ef8f73d	0.48626128
12	0x3e678784	0.22610289
13	0xbe12102a	-0.14263979
14	0x3ebb4656	0.365771
15	0x3e394cc1	0.18095686
16	0x3e0012e3	0.12507205
17	0x3ecb7c95	0.39743486
18	0x3dbaa168	0.09112817
19	0x3dd987ad	0.10621581
20	0x3e29e8b0	0.1659267
21	0x3ed669f9	0.41877726
22	0x3e8312b9	0.25600222
23	0x3ea695d1	0.32536176
24	0x3e9689c6	0.29401988
25	0x3ecb7b14	0.3974234
26	0x3ea51a55	0.32246652
27	0x3f077cbb	0.529247
28	0xbef3ec4b	-0.47641215
29	0x3e9dbf0c	0.3080982
30	0x3e9a3e66	0.3012573
31	0x3f39ca0c	0.72573924
32	0x3eb22478	0.34793448
33	0x3eea634e	0.45778888
34	0x3e3aff74	0.1826151
35	0x3dcd64c0	0.10028982
36	0x3f08259e	0.531824
37	0x3eb5c479	0.3550146
38	0x3dce512c	0.10074076
39	0x3de097e0	0.10966468
40	0x3e1ae97b	0.15128128
41	0x3d794703	0.060858738
42	0x3e528e5e	0.20562121
43	0x3ee0c55a	0.43900567
44	0x3ebaf1d6	0.3651263
45	0x3e707161	0.2348075
46	0x3e58238c	0.2110731
47	0x3e32b0f8	0.1745032
48	0x3d9800c2	0.074220195
49	0xbf0272d3	-0.5095646
50	0x3e88baee	0.26705116
51	0x3d4685d2	0.048467465
52	0x3e279abb	0.16367619
53	0x3cae68c9	0.0212902
54	0x3e7ee5ce	0.24892351
55	0x3e9d96a1	0.30778983
56	0x3e89ec3c	0.26938045
57	0x3e959442	0.29214674
58	0x3e86dc98	0.26340175
59	0x3dd820c4	0.105531245
60	0x3db91f03	0.09039118
61	0x3e129267	0.1431366
62	0x3e557d17	0.20848499
63	0x3e0cda61	0.1375518
64	0x3eb74555	0.35795084
65	0x3d8f87cd	0.07008324
66	0x3f202142	0.6255075
67	0x3e87ff68	0.26562047
68	0xbbf3983f	-0.0074339206
69	0x3e339b77	0.17539774
70	0x3e793664	0.24337155
71	0x3e81bf0d	0.25341073
72	0x3dbfd585	0.093668975
73	0x3e44aab5	0.19205745
74	0x3ebcdbd8	0.36886477
75	0x3ef4abce	0.47787327
76	0x3d6e89de	0.05823695
77	0xbe0df6c9	-0.13863672
78	0x3e5e0450	0.21681333
79	0x3da8b507	0.08237653
80	0xbc56aa80	-0.013102174
81	0x3f197772	0.59947884
82	0x3e44f1ae	0.19232818
83	0x3d476627	0.048681404
84	0xbd3a1480	-0.045429707
85	0x3ef2a3a6	0.4739048
86	0xbe546a1c	-0.20743603
87	0x3e59bd76	0.2126368
88	0x3ea92b76	0.3304097
89	0x3ebc4c30	0.36776876
90	0x3f0ae247	0.5425152
91	0x3f3616b4	0.7112839
92	0xbf4ca909	-0.7994543
93	0x3ede62b4	0.4343468
94	0x3e8d9396	0.27651662
95	0x3f44e8d0	0.76917744
96	0x3eb60fa6	0.35558814
97	0x3f1edff4	0.62060475
98	0x3dd46acf	0.103719346
99	0x3ef244d9	0.47318152
100	0x3e7177b5	0.23580821
101	0x3ecbdbc0	0.39816093
102	0x3e4ab5a6	0.19795856
103	0x3e913b85	0.28365722
104	0x3eab0016	0.33398503
105	0x3e8ff527	0.28116724
106	0x3eaea0a2	0.34106928
107	0x3dd27a2c	0.10277209
108	0x3eb22c6b	0.34799513
109	0x3ea1f3d5	0.31631342
110	0x3db8d986	0.09025864
111	0xbe8429ab	-0.2581304
112	0x3d14ddee	0.03634446
113	0xbf11d7d9	-0.5696998
114	0x3ea13b2a	0.3149045
115	0x3e1ee5c1	0.15517332
116	0x3e39839f	0.18116616
117	0x3da85e37	0.08221095
118	0x3ed6ccc1	0.4195309
119	0x3ec04511	0.37552693
120	0x3d366094	0.044525698
121	0x3e90183c	0.2814349
122	0x3df61c9b	0.12017175
123	0x3e003c91	0.12523104
124	0xbc9273c6	-0.01787747
125	0xbcf8e335	-0.030381778
126	0x3e76c843	0.24099831
127	0x3e25eb4f	0.16203044
128	0xbe23d7a5	-0.1600023
129	0xbf017371	-0.50566775
130	0x3cbe56cc	0.023234747
131	0xbee7c0d8	-0.45264316
132	0x3d5fc1ce	0.054628186
133	0x3e7efa82	0.24900249
134	0xbea89d01	-0.32932284
135	0xbf144a71	-0.5792609
136	0x3ebbe764	0.36699975
137	0x3ea17a55	0.31538644
138	0xbf23f810	-0.6405039
139	0x3d3956d2	0.045248814
140	0xbea29772	-0.3175617
141	0xbf1522c9	-0.582562
142	0xbe0205a2	-0.12697461
143	0x3e0bf75d	0.1366858
144	0x3ebf9019	0.37414625
145	0xbdfab3ad	-0.12241302
146	0x3e57579d	0.21029516
147	0x3f0c2542	0.5474435
148	0x3ea20324	0.3164302
149	0xbeb2b5a5	-0.3490421
150	0xbf10a803	-0.56506366
151	0x3e39f7ad	0.18160887
152	0xbdaea53f	-0.08527612
153	0xbe6c3d0b	-0.23070161
154	0xbc99e53b	-0.018786063
155	0xbe102dd6	-0.14079985
156	0x3f1ce8a1	0.61292464
157	0xbefb1e37	-0.4904649
158	0xbe53e03e	-0.2069101
159	0xbee7acfe	-0.4524917
160	0xbbace9ed	-0.0052769096
161	0xbf42927a	-0.76004755
162	0x3dbc6400	0.09198761
163	0x3e589252	0.21149567
164	0xbf271c9a	-0.6527802
165	0x3e82d539	0.255533
166	0x3e1989e5	0.14994009
167	0xbdff0ef1	-0.12454022
168	0x3e7d8896	0.24759135
169	0xbf0e3f98	-0.55565786
170	0xbe3bd307	-0.1834222
171	0x3e07a4a0	0.13246393
172	0x3ce3267a	0.027728308
173	0x3ef76159	0.48316458
174	0x3e687e75	0.2270449
175	0x3e97f878	0.29681754
176	0x3e99445e	0.29934973
177	0x3eaad5e0	0.333663
178	0x3ea4fd55	0.32224527
179	0xbcf7cc37	-0.030248744
180	0x3ebc5bc7	0.3678877
181	0x3cdcbe5f	0.026946245
182	0x3c0adee6	0.008475995
183	0xbf0b1ff1	-0.54345614
184	0x3bd66ecd	0.00654397
185	0xbe0016e0	-0.12508726
186	0x3e62a78e	0.2213423
187	0xbef6d1f1	-0.48207048
188	0x3e0f1766	0.1397377
189	0xbca531c3	-0.02016533
190	0xbd39e6ea	-0.045386232
191	0xbe8421c7	-0.2580702
192	0x3e91257d	0.28348914
193	0x3e10aaf8	0.1412772
194	0x3ee132a8	0.4398396
195	0x3e4f0efb	0.20220558
196	0x3e056447	0.13026534
197	0x3e9059d8	0.28193545
198	0x3ee9736c	0.45595872
199	0x3e847651	0.25871518
200	0x3d63dc41	0.055629972
201	0x3dbf3b33	0.09337463
202	0x3ecfde99	0.40599516
203	0x3ef93812	0.4867559
204	0x3e659414	0.22419769
205	0x3e324314	0.17408401
206	0x3e1d7a03	0.15378575
207	0x3e2835eb	0.16426818
208	0x3e261766	0.16219863
209	0x3ed63f5f	0.41845223
210	0x3ead9414	0.33902037
211	0x3e0cf69d	0.1376595
212	0x3e934943	0.28766832
213	0x3ec0b064	0.37634575
214	0xbc100b20	-0.008791715
215	0x3e210eeb	0.15728347
216	0x3ee11cc9	0.43967274
217	0x3ed90c51	0.4239221
218	0x3ee0524c	0.43812788
219	0x3efaa5ba	0.48954564
220	0xbcaaa451	-0.020830305
221	0x3ea821e5	0.3283836
222	0x3e3d021f	0.1845784
223	0x3f0ae297	0.54252
224	0x3eb2f791	0.34954503
225	0x3e9f7c44	0.31149495
226	0x3e2260ef	0.1585729
227	0x3c4cc30f	0.0124976775
228	0x3f0225a6	0.50838697
229	0x3ee8c34e	0.45461506
230	0x3e449ea9	0.19201149
231	0x3e522843	0.20523171
232	0x3e6bf0e2	0.23041108
233	0x3e896b37	0.2683961
234	0x3e4b6c99	0.19865645
235	0x3dd9fc4a	0.106438234
236	0x3e681694	0.22664863
237	0x3d29e063	0.041473757
238	0x3e883378	0.26601768
239	0x3e8e2083	0.2775918
240	0x3e2534ee	0.16133472
241	0xbd2edf1f	-0.042693254
242	0x3e9d32b4	0.30702746
243	0x3e95b6a0	0.29240894
244	0x3eae8e36	0.34092873
245	0x3d3a0750	0.04541713
246	0x3e55e459	0.20887889
247	0x3e970044	0.2949239
248	0x3e5309c7	0.20609199
249	0x3e5258cf	0.2054169
250	0x3d05f8dd	0.032708038
251	0x3dc7c113	0.09753623
252	0x3e985c35	0.29757848
253	0x3e354241	0.17701055
254	0x3e46459d	0.19362493
255	0x3e615fa5	0.22009142

fc2.bias f4 [64]
0	0xbeceffc4	-0.4042951
1	0xbf19dbbb	-0.6010091
2	0x3d913bf3	0.070915125
3	0xbc3dca71	-0.01158391
4	0xbbdc13f2	-0.006716245
5	0xbc675ce7	-0.014121271
6	0xbe3ad636	-0.18245777
7	0xbb282a02	-0.0025659804
8	0xbdd80aba	-0.10548921
9	0xbf1923e0	-0.59820366
10	0xbf055319	-0.5207992
11	0xbe09ec11	-0.13468958
12	0xbb4e7bc0	-0.0031506866
13	0xbedd7d9a	-0.4325989
14	0xbef61991	-0.4806638
15	0xbf1f73d2	-0.622861
16	0xbcb1446d	-0.021639073
17	0xbed598e1	-0.417182
18	0xbcf71f64	-0.030166335
19	0xbec68021	-0.3876963
20	0xbc00415c	-0.007828083
21	0x3da3b5fe	0.07993697
22	0xbc08037c	-0.008301612
23	0xbf4882ad	-0.78324395
24	0xbc9272d1	-0.017877014
25	0xbea75215	-0.3267981
26	0xbd9cf873	-0.076645754
27	0xbde23585	-0.11045364
28	0xbf2f2bda	-0.6842629
29	0xbe221a8d	-0.15830441
30	0xbbbdb45b	-0.0057893223
31	0xbf25c6f0	-0.6475668
32	0xbe88fe63	-0.26756582
33	0xbdd811db	-0.10550281
34	0xbf2296fa	-0.6351162
35	0xbf2de821	-0.67932326
36	0xbe113a1a	-0.1418232
37	0xbdd9c270	-0.10632789
38	0xbcd81ffa	-0.026382435
39	0xbf0ecf80	-0.5578537
40	0xbeb66ea7	-0.35631296
41	0xbbdcc873	-0.0067377626
42	0xbe72c595	-0.23708184
43	0xbc5f8b70	-0.013644084
44	0xbd0afefa	-0.03393457
45	0xbeeb343e	-0.45938295
46	0xbf23e8a7	-0.64026874
47	0xbf1a1632	-0.6019012
48	0xbd33ec69	-0.04392663
49	0xbc066330	-0.008202359
50	0xbe4fa86c	-0.20279092
51	0xbf216e91	-0.63059336
52	0xbbb21ac1	-0.005435318
53	0x3d658261	0.056032542
54	0xbe38e6a6	-0.18056735
55	0x3db9ad0b	0.090662085
56	0xbf3fea0f	-0.7496652
57	0xbcf83458	-0.030298397
58	0xbd8d884a	-0.06910761
59	0xbe06814e	-0.13135263
60	0xbf1bddd3	-0.6088535
61	0xbf045c86	-0.5170368
62	0xbd872c02	-0.06600191
63	0x3e50a1a9	0.20374168

fc3.weight f4 [64, 64]
0	0x3dbb25ec	0.091380924
1	0x3d632e3e	0.05546402
2	0xbd3e41cb	-0.046449464
3	0xbda790e7	-0.08181935
4	0xbde2692b	-0.110552154
5	0xbd11505e	-0.035477035
6	0xbd2e2263	-0.042513262
7	0xbd31a4a7	-0.043369915
8	0x3ce15638	0.027506933
9	0xbc3b06de	-0.0114152115
10	0xbdab443e	-0.083626255
11	0xbe08d713	-0.13363294
12	0x3c86d0c8	0.016456977
13	0x3dd49e01	0.10381699
14	0x3cd9a027	0.026565624
15	0xbaa96c09	-0.0012925874
16	0x3d25bde3	0.040464293
17	0x3bff5c64	0.0077929962
18	0x3d5db199	0.05412445
19	0xbd9acb53	-0.07558312
20	0xbe22a8e4	-0.15884739
21	0x3c1b4032	0.009475755
22	0xbda0bc6f	-0.07848441
23	0xbc02bf15	-0.007980128
24	0x3c85c8f3	0.016331172
25	0xbd1cd521	-0.038289193
26	0xbe1012cc	-0.1406967
27	0x3de999be	0.11406277
28	0xbb77d69f	-0.0037817133
29	0xbdf95c72	-0.12175836
30	0xbe050349	-0.12989534
31	0x3d86f38d	0.065894224
32	0xbdfd500b	-0.123687826
33	0x3d9e760d	0.0773736
34	0x3de62c1c	0.11238882
35	0xbd02e0f4	-0.031952813
36	0xbe0c19d7	-0.13681732
37	0xbdfed0d4	-0.124421746
38	0xbd46258f	-0.048375662
39	0x3c7e3d13	0.015517491
40	0x3da757e8	0.08171064
41	0xbd922358	-0.071356475
42	0xbda01ba8	-0.07817775
43	0xbc0377b4	-0.008024145
44	0xbe216c86	-0.15764055
45	0xbc52f1a6	-0.012874996
46	0x3d760d62	0.060071357
47	0x3c2be865	0.010492419
48	0x3c41b5b3	0.011823106
49	0xbd1a91d1	-0.037736718
50	0x3d19a13c	0.03750728
51	0x3c3b8ed1	0.011447624
52	0x3dae4279	0.085087724
53	0xbd0fb8b3	-0.035088252
54	0xbcf47606	-0.029841434
55	0xbd9b8c22	-0.075950876
56	0xbd89b081	-0.067231186
57	0xbcd55540	-0.026041627
58	0xbe14144a	-0.14460865
59	0xbd61433f	-0.05499577
60	0xbd99e986	-0.07515244
61	0xbc3c76cc	-0.011502933
62	0xbdcfbed9	-0.10143823
63	0xbde7b2ad	-0.113133766
64	0xbdb0e69b	-0.086377345
65	0xbe3dc6b5	-0.18532832
66	0xbe2574d6	-0.1615785
67	0xbde928f6	-0.11384766
68	0x3d5d6d7e	0.054059498
69	0xba9658a0	-0.0011470504
70	0xbd4fdbac	-0.050746605
71	0x3dede2e7	0.11615544
72	0x3da55ad0	0.08073962
73	0xbe8ad090	-0.27112246
74	0x3ebd1869	0.36932686
75	0x3e820316	0.2539298
76	0x3d2f5bea	0.042812265
77	0x3d35cbe3	0.044383895
78	0x3e0642b8	0.13111389
79	0xbe556af3	-0.20841579
80	0x3e97a960	0.2962141
81	0xbea03d78	-0.31296897
82	0x3cc3045a	0.023805786
83	0x3e99ada6	0.30015296
84	0xbd0e9e64	-0.03481902
85	0xbf406c10	-0.7516489
86	0x3daecb56	0.08534877
87	0x3ec57ae2	0.38570315
88	0x3c137c2e	0.009001775
89	0x3e2c0a62	0.16800836
90	0xbe4a0d6d	-0.19731684
91	0xbeb36496	-0.35037678
92	0xbd5d351a	-0.05400572
93	0xbe43c44a	-0.19117847
94	0xbebde6d8	-0.37090182
95	0xbd3c86e2	-0.04602707
96	0xbec8b10c	-0.39197576
97	0xbe23c4a2	-0.15992978
98	0xbf165a98	-0.58731985
99	0x3e20d77d	0.15707202
100	0x3d21a729	0.039466057
101	0xbd083f7c	-0.03326367
102	0x3da6086e	0.081070766
103	0xbe517a9e	-0.20456931
104	0xbe54b76d	-0.20773096
105	0x3cf034de	0.029322084
106	0x3de44dcb	0.1114765
107	0x3e6aa5c6	0.229148
108	0xbec8a7d6	-0.3919055
109	0xbe768ddf	-0.24077557
110	0x3e5a329e	0.21308371
111	0xbe3fc021	-0.18725635
112	0x3c86aff9	0.016441332
113	0xbdd00aa2	-0.10158278
114	0xbfbd261e	-1.4777257
115	0xbecc885a	-0.39947778
116	0x3d6bf49a	0.057606317
117	0x3d52b90e	0.051446013
118	0x3e35d4f8	0.17757022
119	0x3e947965	0.28998867
120	0xbcc0f6b3	-0.023555135
121	0x3ea5ef95	0.3240935
122	0xbdcfb1d2	-0.101413384
123	0x3e76b153	0.24091081
124	0x3d1e02d1	0.038576905
125	0xbd7f3e16	-0.06231507
126	0xbddc3cf7	-0.107538156
127	0xbe91d0ef	-0.28479716
128	0x3da42993	0.08015742
129	0xbce1fb98	-0.02758579
130	0x3dc8f1f8	0.09811777
131	0xbda921e1	-0.08258415
132	0x3dd54e28	0.10415298
133	0xbc43bb0f	-0.011946454
134	0x3cb9ac5a	0.022665191
135	0x3d64204a	0.055694856
136	0xbd66896c	-0.0562834
137	0x3d5f3d08	0.054501563
138	0x3d20d7ba	0.039268233
139	0x3cfea74f	0.031085638
140	0xbe01f5e8	-0.12691462
141	0xbd7fa0b2	-0.06240911
142	0x3dbae8c6	0.09126429
143	0x3dd13402	0.10214998
144	0xbdb78e5e	-0.08962701
145	0x3cacc1bd	0.021088475
146	0xbd1b9980	-0.037988186
147	0x3d3f983f	0.046776053
148	0xbdd7e33e	-0.1054139
149	0x3d1a0b37	0.03760835
150	0xbd1a8161	-0.03772104
151	0xbd646b74	-0.055766538
152	0xbd81642c	-0.063179344
153	0x3dc8e658	0.098095596
154	0x3b6b36ad	0.0035890744
155	0x3d2388e8	0.039925486
156	0x3d964dfd	0.07339094
157	0xbd448ee1	-0.047987822
158	0xbda7c0b1	-0.0819105
159	0xbdd320be	-0.103089795
160	0xbdb15cd2	-0.08660282
161	0x3daceb87	0.08443361
162	0x3db2476e	0.087050304
163	0x3ab33e3f	0.0013675167
164	0x3d2f2333	0.042758178
165	0xbd7bc3e0	-0.061466098
166	0xbc2d0031	-0.010559128
167	0x3d60e243	0.05490328
168	0x3d1c9252	0.03822548
169	0xbde27832	-0.11058082
170	0x3dc4808a	0.095948294
171	0x3d30d096	0.043167673
172	0x3d9c8af2	0.07643689
173	0xbdef181a	-0.11674519
174	0xbd3f9657	-0.046774235
175	0xbde54171	-0.111941226
176	0xbd0fa4ec	-0.03506939
177	0x3d23a326	0.039950512
178	0xbdd73ebb	-0.10510012
179	0xbdddce04	-0.1083031
180	0x3d29aa7f	0.041422363
181	0xbd06717a	-0.032823063
182	0xbdf39ef2	-0.11895551
183	0xbd426d5b	-0.04746757
184	0x3d8240e3	0.063600324
185	0x3dabb1fc	0.08383557
186	0xbdb92e15	-0.090419926
187	0x3d84408f	0.06457626
188	0x3dd00e16	0.10158937
189	0x3d3c1ed8	0.045927852
190	0xbdc580be	-0.09643696
191	0xbded71ab	-0.11593946
192	0xbddc92c0	-0.10770178
193	0xbdc32fa2	-0.095305696
194	0x3dc67e12	0.09692015
195	0x3b03d440	0.0020115525
196	0xbd8c4e82	-0.06850912
197	0xbd87b2bc	-0.06625888
198	0x3b36dc00	0.0027902126
199	0xbccfea80	-0.025380373
200	0xbdf1f71c	-0.118147105
201	0xbd20941c	-0.039203748
202	0x3d6d64e8	0.05795756
203	0xbc0d3090	-0.008617535
204	0xbd3579b0	-0.044305503
205	0xbd847aaa	-0.06468709
206	0x3d05e44c	0.032688424
207	0x3cab8170	0.020935744
208	0xbcfda9d0	-0.030964762
209	0xbd320730	-0.043463886
210	0x3d68ad14	0.056805685
211	0x3c34b240	0.011028826
212	0xbc556860	-0.013025373
213	0xbd128010	-0.03576666
214	0xbcccc978	-0.024998412
215	0x3b133f80	0.002246827
216	0x3d8914b8	0.06693405
217	0xbd48b560	-0.049001098
218	0x3d997fcc	0.074950784
219	0xbda00672	-0.07813729
220	0x3de57ef0	0.11205852
221	0x3c7db5e0	0.015485257
222	0xbde36e8a	-0.11105068
223	0x3dd7bf42	0.105345264
224	0x3cb68bd0	0.022283465
225	0xbaeda980	-0.001813218
226	0x3daa8ee0	0.083280325
227	0x3b4bd480	0.0031102002
228	0xbcd321b0	-0.0257729
229	0xbcff26a0	-0.031146348
230	0x3dc16f94	0.0944511
231	0x3c3ccec0	0.011523902
232	0xbd737074	-0.059433416
233	0x3db16b42	0.08663036
234	0x3d9c5756	0.076338455
235	0x3d78a0fc	0.0607004
236	0x3d78656c	0.0606436
237	0xbdd5e39e	-0.10443805
238	0x3d82d5ee	0.0638846
239	0x3d08d9e8	0.033410937
240	0xbdf251c6	-0.11832003
241	0x3d58b470	0.052906454
242	0xbdcd65c8	-0.10029179
243	0x3d94af9e	0.07260059
244	0xbb6e6600	-0.0036376715
245	0xbdc2277e	-0.09480189
246	0x3dc0f962	0.09422566
247	0xbc87b918	-0.016567752
248	0xbde6980c	-0.112594694
249	0xbda51248	-0.080601275
250	0x3d004fa4	0.03132595
251	0xbdd51032	-0.1040348
252	0xbcfaec98	-0.030630395
253	0x3da9d752	0.08293022
254	0xbdd1fdfa	-0.1025352
255	0x3cd6ec58	0.026235744

fc3.bias f4 [64]
0	0x3cde0a3d	0.027104491
1	0x3f029769	0.51012284
2	0xbd0175b2	-0.031606384
3	0xbdad4136	-0.084597036
4	0xbe7f7852	-0.24948242
5	0xbd1cf3bc	-0.03831838
6	0x3e558576	0.20851693
7	0x3e3e3aea	0.18577161
8	0x3ca78b15	0.020452062
9	0xbeeff16d	-0.4686388
10	0x3dfdba8d	0.12389097
11	0xbccdd57f	-0.025126217
12	0xbe0f59ff	-0.13999175
13	0x3c4d5637	0.012532762
14	0xbe3ab1bd	-0.18231864
15	0xbf13f2a4	-0.57792115
16	0xbda63b11	-0.08116735
17	0xbdd04e60	-0.10171199
18	0xbdd150a9	-0.10220463
19	0xbcf0b86a	-0.02938481
20	0x3e6622b8	0.22474182
21	0xbd72c568	-0.059270293
22	0xbd58d9f8	-0.052942246
23	0x3f852769	1.0402652
24	0xbdb1e298	-0.086857975
25	0x3e119161	0.14215614
26	0x3da9fbe1	0.08299995
27	0xbd2b6143	-0.041840803
28	0x3d8686b8	0.06568664
29	0xbd18d9b6	-0.037317
30	0x3e03650c	0.12831515
31	0x3dbcc0b3	0.09216442
32	0xbdfd26f9	-0.12360949
33	0x3e85a1d6	0.26100034
34	0x3d0cb92c	0.03435628
35	0x3bfc74e5	0.0077043646
36	0x3ebad7ce	0.3649277
37	0xbced9dd9	-0.029005932
38	0xbddcd9a6	-0.10783701
39	0xbe03bcbd	-0.12864967
40	0xbd99e02c	-0.075134605
41	0x3d08fc18	0.03344354
42	0xbefcce91	-0.49376348
43	0xbe89fc9d	-0.2695054
44	0xbea10c2e	-0.31454605
45	0xbdda1cfc	-0.106500596
46	0xbd3c7b73	-0.046016168
47	0xbcd9c498	-0.026583001
48	0xbe78f8a4	-0.24313599
49	0xbbf58090	-0.0074921325
50	0x3ed2e2d0	0.4118867
51	0xbd1a1b3c	-0.03762363
52	0xbd6b775c	-0.057486877
53	0x3d9f62fc	0.07782552
54	0xbda9f4ef	-0.082986705
55	0x3ee0d91b	0.43915638
56	0xbcaa5839	-0.020794021
57	0xbda8cb06	-0.08241849
58	0x3e92a2cb	0.28639826
59	0x3eea3ebd	0.4575099
60	0xbd611a45	-0.054956693
61	0xbcd059f5	-0.02543352
62	0x3ead786c	0.33880937
63	0x3e80bd14	0.25144255

fc4.weight f4 [1, 64]
0	0xbd9566b2	-0.07294978
1	0xbf80bad6	-1.0057018
2	0xbc9e1769	-0.019298272
3	0x3dd6ab7a	0.10481925
4	0x3ee6e1e2	0.4509421
5	0x3bb5de1b	0.0055501587
6	0x3edb131e	0.42788023
7	0x3ef12dea	0.47105342
8	0xbbba3b9e	-0.0056833765
9	0x3f011eb8	0.504375
10	0x3ed9f084	0.4256631
11	0xbb80913b	-0.003923563
12	0x3c1570ce	0.009121133
13	0xbd7499aa	-0.059716858
14	0x3ee9c15d	0.45655337
15	0x3f0ea896	0.5572599
16	0x3c955547	0.01822914
17	0x3bfa7a8e	0.007644004
18	0xbdd74dce	-0.10512887
19	0xbb525a43	-0.0032097257
20	0xbf2c4a2c	-0.6730068
21	0xbd65b26c	-0.05607836
22	0xbde64104	-0.112428695
23	0x3fcc8711	1.5978719
24	0x3de67926	0.11253576
25	0x3ef5efe4	0.48034585
26	0x3eff64d1	0.49881604
27	0xbdca22ef	-0.09869944
28	0x3ee0d64a	0.4391349
29	0x3c08a38a	0.008339772
30	0xbf6dfa82	-0.9296037
31	0x3effe914	0.49982512
32	0xbdb70e8d	-0.08938322
33	0x3ef6bbfa	0.4819029
34	0xbd013066	-0.031540297
35	0xbc1c33d1	-0.009533838
36	0xbf04473d	-0.516712
37	0xbd9d25d0	-0.07673228
38	0xbb753524	-0.0037415707
39	0x3ee99512	0.45621544
40	0xbd6a7809	-0.05724338
41	0x3ab71e6d	0.001397086
42	0x3ef605b6	0.48051232
43	0x3f0d9c52	0.5531665
44	0x3f0cc6bd	0.5499075
45	0xbd23a070	-0.039947927
46	0xbd8f8f20	-0.07009721
47	0x3dc261c2	0.09491302
48	0x3ee30b85	0.44344726
49	0xbd93c586	-0.07215409
50	0xbf8f02af	-1.1172694
51	0xbda2a3a9	-0.07941372
52	0x3effd590	0.49967623
53	0x3ed7a1a2	0.42115504
54	0xbd7f835c	-0.062381133
55	0x3ebc3c3b	0.36764702
56	0xbdd45a70	-0.10368812
57	0x3ee07ff1	0.43847612
58	0x3efaa58c	0.48954427
59	0x3ea1e880	0.31622696
60	0xbde54b03	-0.11195948
61	0xbfb0b15a	-1.3804123
62	0x3edceeba	0.43150884
63	0x3eeefd97	0.4667785
