src/Actividad8_ProyectoFinal/bike_demand_best_nn_model_.pth (torch, 47311 bytes, 7 tensors)

fc1.weight f4 [64, 44]
000000 3f 2b 29 bd 4f a7 be bc 70 59 95 3b 4c c7 37 ba
       -0.04130101 -0.023273138 0.004557781 -0.00070105935
000010 aa 6b 2f 3a 3e 83 c7 3c 7e e9 85 3e d5 f1 da 3b
       0.00066917634 0.024354573 0.26154703 0.0066816607
000020 93 73 92 3d dd 84 bd bd ad 0c 85 3c 35 f0 0e bf
       0.0715095 -0.09253857 0.016241396 -0.55835277
000030 94 41 97 bd a9 e3 b7 bd 7e f1 e6 bd 35 0c c1 bd
       -0.07385555 -0.089789696 -0.1127653 -0.094261564
000040 63 b8 ce be 42 8d ca be bf ff f4 be f1 3f 5d be
       -0.4037505 -0.39560896 -0.4785137 -0.21606423
000050 9c 5c fd 3d 8b 43 e8 3e d9 2d 8f 3e 53 30 aa 3e
       0.123711795 0.4536403 0.27964666 0.33239993
000060 63 54 c7 3e 4b 9c 8a 3e b2 65 88 3e d3 39 f6 3e
       0.3893157 0.27072367 0.26640087 0.4809099
000070 78 4e 86 3e e6 76 89 3d 54 09 fe 3c 76 30 68 3e
       0.26231742 0.06712131 0.031010307 0.22674736
000080 35 34 37 3e 8a a5 83 3e 57 66 8b 3d 49 7a 55 3d
       0.17891009 0.25712234 0.06806629 0.052118573
000090 90 8f c8 bd 6d eb 46 3e 4e 32 e9 3d d3 b9 49 3e
       -0.097930074 0.19425745 0.11386548 0.19699793
0000a0 20 22 52 3e ae 13 1e 3e 34 dd 5c 3d 3a f2 0c bd
       0.2052083 0.15437195 0.053921893 -0.034410693
0000b0 af 0c c0 3d f9 95 87 bd b4 0f 91 bc 2d d2 13 bc
       0.09377419 -0.06620402 -0.017707683 -0.009022278
0000c0 50 79 34 3d 40 fb c2 bd f8 7e 6c be d0 28 7a bc
       0.044061005 -0.095205784 -0.2309531 -0.0152685195
0000d0 28 fa e9 bd 36 83 da bd f6 f4 f1 bc da 46 98 be
       -0.11424667 -0.10669558 -0.029535752 -0.29741555
0000e0 b3 03 60 bd 0f c2 60 be 36 8b 43 be 0e de 99 be
       -0.054691028 -0.21949027 -0.19096074 -0.30052227
0000f0 d9 04 b1 be 97 c3 a0 be e4 23 58 be 79 2b b5 bd
       -0.3457401 -0.31399223 -0.21107441 -0.088461824
000100 fa 46 02 3e d4 53 a1 3e 38 c1 c4 3e 33 f0 c6 3e
       0.12722388 0.31509268 0.38428664 0.38855132
000110 98 2c c8 3e 6d a3 af 3e 69 b4 9d 3e e2 a5 d3 3e
       0.39096522 0.3430437 0.30801705 0.41337496
000120 45 6d f4 3c 7f a3 80 3d 0d 1d 08 be 84 5c 54 be
       0.02983726 0.062811844 -0.13292332 -0.20738417
000130 5c 92 75 bd 1a 43 9a be da 32 63 be 78 24 af be
       -0.059954032 -0.3012932 -0.22187367 -0.3420751
000140 46 43 7d 3c 26 45 e9 3d 9a de 83 bd 16 59 5a 3d
       0.015457934 0.11390142 -0.06438942 0.053307615
000150 fe 93 2e bb 11 7c 51 bd 1f 85 8e 3e 74 1b 88 bd
       -0.0026638503 -0.05114371 0.27835938 -0.06645861
000160 9a 55 23 3e 5b b6 27 bc c4 b4 f4 3c c6 ae 3c bc
       0.15950623 -0.010236348 0.029871352 -0.011516279
000170 0a 2a 78 3d 0e 95 39 be bf 04 f5 3a 2c 83 0d be
       0.060586967 -0.18123266 0.0018693431 -0.1381957
000180 b7 be 7c 3e b5 7d 41 be 11 06 b8 3d 69 50 90 be
       0.24682127 -0.1889561 0.08985532 -0.28186348
000190 54 40 a1 bc 12 31 b0 3d 21 31 7c be c8 b1 68 be
       -0.019683994 0.086031094 -0.24628116 -0.22724068
0001a0 83 8c 88 be b2 af cb be e6 82 b3 be a1 1e df be
       -0.26669702 -0.39782482 -0.35060805 -0.43578056
0001b0 0a 52 95 3d 1c a5 0a 3e 6c 7e 05 3e da f8 a1 3e
       0.07291038 0.13539547 0.13036507 0.3163517
0001c0 82 d6 19 3e 26 36 f5 3d 27 42 cd 3e 71 f0 73 3e
       0.15023234 0.119732186 0.40089533 0.2382219
0001d0 a2 19 00 3c f6 6f 07 3e e1 68 8d 3e a4 36 67 3e
       0.007818611 0.13226303 0.2761908 0.22579437
0001e0 df 49 29 3e 6d 6a 19 3e ec 35 0a 3e 2b 12 9b 3c
       0.16532086 0.14982004 0.13497132 0.018929562
0001f0 b1 c2 63 be 8f 05 b3 3d fe 2a 7f be 28 40 54 bd
       -0.22242238 0.087412946 -0.24918744 -0.051818997
000200 70 a0 5a 3e 98 02 ed 3d 86 6d da 3d 76 d8 f2 3d
       0.21350265 0.1157276 0.10665421 0.11857693
000210 1c 60 d1 3d 5f a8 60 bd e3 69 85 bc 38 2f 13 bd
       0.102234095 -0.05484807 -0.016285842 -0.035933703
000220 c7 9d bd bc e5 fa 0b bd 4c 8c ee bc 54 a9 fc 3d
       -0.023146523 -0.03417482 -0.029119633 0.12336984
000230 53 83 19 bd 84 6f f4 bc 4d 3d ac 3c c3 7b c3 3d
       -0.037478756 -0.029838331 0.021025324 0.0954509
000240 cf 1a ea bd 55 85 af be 4a 15 bd be 00 34 99 be
       -0.114308946 -0.34281412 -0.36930305 -0.29922485
000250 52 51 c3 be b9 8a 92 be d2 d8 4a 3e 7e f5 82 3e
       -0.3814798 -0.28621462 0.19809273 0.2557792
000260 e3 54 fb 3e d8 c6 f3 3e a7 2c 8e 3e c5 28 76 3e
       0.490882 0.47612643 0.27768442 0.2403899
000270 f9 3d 4f bd a9 ee a6 3c 70 45 15 be a4 ec 17 bd
       -0.05059621 0.020377474 -0.1457727 -0.037090912
000280 18 3d 8e 3e f6 05 de 3e 51 84 84 3e 98 62 99 3e
       0.27780986 0.43363923 0.258822 0.29958034
000290 92 64 3a bd 3d 71 82 3e 9d 59 71 3e 73 27 3c bc
       -0.045506068 0.2547702 0.23569341 -0.011484015
0002a0 a0 68 f7 3d 8a 39 cf 3b b1 05 d8 bc f4 20 db 3b
       0.120805025 0.006323998 -0.026369901 0.006687278
0002b0 c2 bb 99 be ef 75 af be 0c e8 fe 3d eb 42 bd be
       -0.3002606 -0.34269664 0.12446603 -0.36965117
0002c0 02 fb 1f 3e 07 6b 2f bd 09 eb 65 bd 60 fe 6c bd
       0.15623096 -0.04282668 -0.05613235 -0.05785978
0002d0 7e 9c 6c 3a 87 53 34 3e 1b 5d 12 3e b3 69 80 bd
       0.00090260047 0.17609988 0.1429333 -0.062701605
0002e0 85 bb ff bd 7d 69 c8 3c 54 c9 e2 3a 85 69 3c be
       -0.124869384 0.024464363 0.0017302432 -0.18399628
0002f0 88 99 33 be de 2d e2 be 07 78 ec be 18 87 07 bf
       -0.17539036 -0.4417562 -0.46185324 -0.5294051
000300 52 ef 50 be b5 ae 63 be 8d 29 52 3e 70 81 82 3e
       -0.20403793 -0.22234614 0.20523663 0.25489378
000310 dc dd aa 3e b8 3e e2 3d ff dc 47 bd 24 16 92 bc
       0.3337239 0.11047119 -0.048794743 -0.017832823
000320 69 14 b7 3e ca 61 b2 3e 7a 85 c8 3e ec 87 d3 3e
       0.3575776 0.34840232 0.39164335 0.41314638
000330 40 64 7e 3e 15 fd 84 3e 5d c1 6b 3e 31 37 5a 3e
       0.2484293 0.25974336 0.23022981 0.21310116
000340 01 9e 06 3e 3a e5 a6 3e 7e c5 50 3e fe da 1f 3c
       0.13146211 0.3259676 0.20387837 0.009756802
000350 99 ba ef 3d 54 00 7b 3d 62 f6 3f bd fb 24 66 be
       0.117055126 0.06127961 -0.04686583 -0.22475044
000360 d1 a2 98 bc f5 87 9c bd 8d 60 1c 3d aa 24 2e be
       -0.018632324 -0.07643119 0.038178016 -0.17006174
000370 e0 aa 4d 3d f5 cf 6b bd 10 0d cf 3b db cc 22 bb
       0.050211787 -0.05757137 0.006318696 -0.0024841342
000380 21 af bc 3d 31 38 e0 3c f2 da b1 bc f9 90 3e be
       0.09213091 0.027370544 -0.021710847 -0.1860999
000390 1b 8d 17 bf 33 0e 24 3e d9 e8 61 3c da f7 9c bd
       -0.59199685 0.16021042 0.013788425 -0.076644614
0003a0 6b 3a 58 be c5 aa b8 be bb b1 e2 be 28 7a bb be
       -0.21116035 -0.36067787 -0.44276223 -0.36616635
0003b0 09 d9 c0 be 50 85 73 3e e6 81 9e 3e d9 c7 03 3f
       -0.37665585 0.23781323 0.3095848 0.5147682
0003c0 2a 08 26 3f 85 a3 fa 3e 05 95 77 be 48 6c 77 be
       0.6485621 0.4895288 -0.2417794 -0.241624
0003d0 b4 5d 85 be 1a 01 90 be 8a d4 8c be b0 20 8f be
       -0.26048052 -0.2812584 -0.27505904 -0.27954626
0003e0 19 8a 2a be de d6 11 3f 45 85 17 3f e3 12 fa 3e
       -0.16654243 0.56968486 0.5918773 0.48842534
0003f0 dd 8e b4 3e 43 31 bb 3e 55 c4 a4 3e f5 51 35 3d
       0.35265246 0.3656102 0.3218104 0.044267613

fc1.bias f4 [64]
000000 27 f6 15 bd 2e 01 30 be c4 10 27 be 55 81 00 be
       -0.036611702 -0.1718795 -0.1631499 -0.12549336
000010 cf 60 a9 bc 28 67 6d be 24 30 c9 bd 9b ff 24 be
       -0.020676045 -0.23183882 -0.09823635 -0.16113131
000020 f0 f3 99 bd 5c f2 97 be 40 87 ca bc 2f e8 32 3c
       -0.075172305 -0.29677093 -0.024722695 0.010919615
000030 d2 6d f2 bd 69 33 67 be 1c 80 d4 bd 12 6d c4 bc
       -0.11837353 -0.22578205 -0.103759974 -0.02397779
000040 da e0 f2 bc d5 72 29 3e dd 01 57 bd da 1d 42 be
       -0.029648233 0.16547711 -0.05249201 -0.189567
000050 a4 28 22 3d 53 a5 21 be b8 5b 4e be e5 b8 30 3d
       0.03958954 -0.15785722 -0.20152175 0.04314508
000060 8f a4 ce 3c 67 26 d3 be 18 63 5f be e2 e4 67 bd
       0.025224952 -0.41240236 -0.21815145 -0.056614764
000070 9e c1 d3 3d 4d 56 35 be 43 f0 87 be ad 34 29 bd
       0.10339664 -0.17708702 -0.26550493 -0.04131
000080 1b 5d 98 bd 46 70 13 bd 75 af 22 be fc 4d a5 3d
       -0.074396335 -0.035995744 -0.15887244 0.08071515
000090 73 e7 16 3d 33 c0 81 be 4a 0a 94 be e5 34 95 be
       0.03684182 -0.2534195 -0.289141 -0.29141918
0000a0 e3 db 82 be ff a6 db 3c 50 fc 90 be ac 32 66 be
       -0.25558385 0.026813028 -0.283175 -0.22480267
0000b0 fd 90 84 bd f0 84 61 be d5 46 46 be a0 3b 33 be
       -0.06472967 -0.22023368 -0.19362958 -0.17503214
0000c0 f4 d6 92 be 21 1d 7c be 5d 95 b8 be 07 05 46 bb
       -0.2867962 -0.24620487 -0.36051455 -0.00302154
0000d0 6a 3e 42 be 24 37 60 be ca da 24 be 81 53 de be
       -0.18969122 -0.21896034 -0.16099086 -0.43423083
0000e0 ae f3 8e be ea 26 3f be fc 98 5d be ca 26 84 be
       -0.27920288 -0.18667188 -0.2164039 -0.25810844
0000f0 f0 39 9e be 88 3c 09 be 21 a8 67 be b6 43 22 be
       -0.30903578 -0.13401997 -0.2262273 -0.15846142

fc2.weight f4 [64, 64]
000000 c0 68 81 bd 49 ce a1 be 6f c8 22 bd d2 a5 17 be
       -0.063188076 -0.31602696 -0.03974193 -0.14809349
000010 b5 cf 00 3e 2b 86 25 3e 84 f6 54 be c9 88 82 3d
       0.12579234 0.16164462 -0.20797163 0.06373746
000020 eb a2 08 bd c6 00 82 ba 1b 6d 8a 3c 56 79 a2 3d
       -0.033358496 -0.0009918443 0.016897729 0.07933299
000030 60 78 0a be 13 bf 79 be 77 d7 04 be 63 45 96 be
       -0.13522482 -0.24389295 -0.12972818 -0.29349813
000040 3e 28 d6 bc 09 b5 85 3d 3d 8d a8 bd 4c 4a 76 be
       -0.026142236 0.0652867 -0.08230064 -0.2405178
000050 76 3a 09 3e 98 7f 1b be 6a e3 9a be a0 1b 24 bd
       0.13401207 -0.15185392 -0.30251628 -0.040065408
000060 97 39 a9 be ee b1 95 be 34 a5 32 be b3 d6 90 bd
       -0.3305175 -0.29237312 -0.17445832 -0.070722006
000070 ef 4f 86 bc b2 ca 11 bd 91 f8 05 be e4 35 39 be
       -0.016395537 -0.035593696 -0.13083102 -0.18086964
000080 8a b4 0b be f0 51 0e 3d a5 7c bc 3d 84 b8 61 bd
       -0.13643089 0.03474611 0.092034616 -0.05510761
000090 bd 04 f2 bd 31 34 b1 be 3a 76 6b be 9a a4 0c be
       -0.1181731 -0.3461013 -0.22994319 -0.13734666
0000a0 ae 85 92 3e fc 61 a0 bc 5e 4b 30 bd 7c e9 ed 3e
       0.28617615 -0.019577973 -0.043040626 0.46467197
0000b0 7f 79 0a be a8 5f 07 3e 9d 7d 80 bd ce 32 a7 be
       -0.1352291 0.13220084 -0.06273959 -0.32655948
0000c0 bf 30 6f bd 59 fd df bc b6 7f cf 3d c8 58 2f be
       -0.058396097 -0.027342485 0.10131781 -0.17123711
0000d0 0f b7 c0 3d 4a 2c 42 be b7 3a 8f be 33 1f a2 3d
       0.09409916 -0.18962207 -0.27974483 0.07916107
0000e0 cc 2d e7 bd 19 e9 05 3e 46 72 5b be 21 ad 75 bd
       -0.11288032 0.13077201 -0.2143031 -0.05997956
0000f0 45 fd 7d be 80 7e 9b 3d 0f 52 d4 bc 0a 37 c3 bd
       -0.24803646 0.07592487 -0.025918035 -0.09531982
000100 ee c0 be bc d0 e0 6e 3e 07 51 db 3d 9f 00 08 3e
       -0.023285355 0.23327947 0.10708814 0.13281487
000110 84 94 88 bd ab d8 18 3f ea b8 39 3e 9b f2 f0 3e
       -0.06668952 0.5970561 0.18136945 0.47060093
000120 be d5 0c be cf 66 de 3e c3 ca 0d be 71 8f 7b 3e
       -0.13753411 0.43437812 -0.13846879 0.24566437
000130 64 0c 63 3e 98 c8 e3 3e 59 77 5b 3e 01 de 19 3d
       0.22172695 0.44488978 0.21432246 0.037565235
000140 76 85 62 bd cc fa 3e bc 8e 33 a0 3a 02 36 32 3e
       -0.05530306 -0.011656474 0.0012222396 0.17403415
000150 16 eb 5e be a4 b7 c7 3e bd 69 df 3e fa 24 6c bc
       -0.21769366 0.39007294 0.4363536 -0.014413113
000160 34 7c 06 bd 63 32 22 3f 65 71 49 3e f6 5a e5 3d
       -0.032833293 0.63358134 0.19672163 0.1119899
000170 64 e7 a2 bd 8e 8b a4 3e 27 6a a9 3e 33 f9 70 3d
       -0.079542905 0.32137722 0.330888 0.058831405
000180 82 16 1c 3d e1 ee 03 3e 92 82 52 3d 86 75 b6 bd
       0.038107403 0.12884094 0.051394053 -0.089091346
000190 05 d5 8b 3d e3 8b a6 3e 5f 0b bb 3e ec b2 8d 3e
       0.068277396 0.325286 0.36532113 0.2767557
0001a0 3a cf 2b bf 7d 4e d4 bc 7c a9 db 3d e1 0e 2f bf
       -0.6711308 -0.025916332 0.10725686 -0.6838208
0001b0 97 5a 6c bd e5 15 09 3f da 32 60 3e 91 e9 f5 3d
       -0.05770358 0.53549033 0.21894398 0.1200744
0001c0 44 5f 60 3e db bd 93 3d f3 cc 1a 3f d5 78 31 3d
       0.21911341 0.072139464 0.6046898 0.043328125
0001d0 b6 3a c3 3e 49 a4 42 bd 05 01 cc 3e 28 57 15 bf
       0.3813073 -0.047519956 0.39844528 -0.58336115
0001e0 ec 25 29 3f 53 87 af 3d d0 11 ac 3e ae cd 7b 3d
       0.6607349 0.08570733 0.3360734 0.06147545
0001f0 90 e6 ff 3e ff f4 03 bd 5b 0c a8 3d 3e c8 0b 3f
       0.49980593 -0.03221607 0.082054816 0.5460242
000200 27 86 09 3e 02 94 da 3e aa e3 7e 3d cc fb 76 3e
       0.13430081 0.42691046 0.062228836 0.2411949
000210 60 50 88 bc 76 53 2e 3f 91 d9 63 3e e0 07 e3 3e
       -0.016639888 0.680961 0.22250964 0.44341946
000220 3e d7 52 bd 6f 17 b3 3e ab 2b c0 3d d2 f7 3b 3e
       -0.051474802 0.34978816 0.09383329 0.18356255
000230 d2 47 88 3e f0 92 a7 3e 8a af 6e 3e 23 05 2d 3e
       0.26617295 0.32729292 0.2330915 0.16896491
000240 e0 05 d8 3d 2e 76 13 bd 8f 05 04 3e 6f fe 82 3e
       0.105479956 -0.036001377 0.12892745 0.25584742
000250 00 d7 d1 3c c9 c9 9d 3e 8d 61 c9 3e 62 08 99 3d
       0.025615215 0.30818012 0.39332238 0.07472302
000260 fd 50 02 3d 87 f5 2b 3f 7f bd 82 3e a6 ac 13 3e
       0.031815518 0.6717152 0.255352 0.14421329
000270 38 2b 28 bd b0 40 b1 3e df fc a3 3e f1 09 9e 3c
       -0.04105684 0.34619665 0.32028863 0.01929185
000280 44 41 a5 3d 2e 0f 8b 3d 90 ec 17 bd 14 8f 70 3b
       0.08069089 0.06790005 -0.037090838 0.0036706375
000290 33 10 0e 3e 66 86 ae 3e d3 cb f2 3e 79 b8 95 3e
       0.13873367 0.34086913 0.4742113 0.29242304
0002a0 15 f9 ce be b9 0c da bd fe cb 3c 3e 8d 77 ef be
       -0.4042441 -0.10646958 0.18437192 -0.46770898
0002b0 7c 70 d0 3d 09 3e 87 3e 1f cc 9a 3e a2 84 1e 3e
       0.10177705 0.26414517 0.30233857 0.15480283
0002c0 98 94 10 3e 6f 78 70 3d c5 fa ff 3e 17 32 0b 3e
       0.14119184 0.058708604 0.4999601 0.13593327
0002d0 97 02 70 3e 86 1a 26 3e 92 a0 f8 3e 98 b5 a9 be
       0.23438488 0.16221055 0.48560005 -0.33146358
0002e0 0f ff 2d 3f 8c 32 cb 3d ec 4f cd 3e 23 0b 8f 3d
       0.67967314 0.099217504 0.40100038 0.06984546
0002f0 ff fb 8c 3e 26 c3 ed 3d be af 1a 3e a4 ad e3 3e
       0.27536008 0.11609487 0.15106103 0.44468415
000300 0c 00 2c 3e 78 b9 b3 3e e9 d1 54 3e 26 2c 5a 3e
       0.16796893 0.3510244 0.207832 0.21305904
000310 fe 2d d1 3d 73 21 0c 3f 47 9b 55 3e 9c a3 e0 3e
       0.102138504 0.5473854 0.20860015 0.43874824
000320 45 4d c1 3c 56 68 ca 3e 03 c1 c7 3d b7 b3 88 3e
       0.023596415 0.39532727 0.09753611 0.26699612
000330 e7 a1 71 3e d5 9c 1c 3e 49 5c b4 3e e3 7f d6 3d
       0.23596917 0.15294202 0.35226658 0.10473611
000340 9e 27 2b 3e 83 fa 33 3e e8 50 45 3d 33 14 3a 3e
       0.16714332 0.17576031 0.04817286 0.18171768
000350 81 2e 2e bd b5 f4 de 3e c0 c7 de 3e 63 5f 59 3e
       -0.04252482 0.43546072 0.43511772 0.21227793
000360 b0 b0 2a 3e 81 24 04 3f e4 36 76 3e cb 3e 67 3e
       0.16668963 0.516182 0.24044377 0.22582547
000370 58 27 d3 3c da 14 f2 3e 1c b2 a1 3e 8b 0e 0f 3e
       0.025775596 0.47281533 0.315812 0.13970391
000380 a9 4e 04 3d 27 de ef 3b 5d 91 03 3e 64 9c 2e 3e
       0.03230158 0.007320184 0.1284842 0.17051846
000390 6b a8 15 3e b3 9b 63 3e d3 6a 9f 3e cd 02 ca 3e
       0.14615028 0.22227363 0.31136188 0.39455262
0003a0 78 3e 02 be 29 57 90 3d e9 7e cf 3e 32 06 88 3d
       -0.12719142 0.070478745 0.40526512 0.06641807
0003b0 2c 33 c9 3d 4f de cc 3e 86 46 3f 3e 3d 31 87 3e
       0.098242134 0.40013358 0.18679246 0.26404753
0003c0 96 33 49 3e e8 0b 8e 3e a5 ca bb 3e 20 23 01 3e
       0.19648585 0.2774346 0.36678043 0.12611055
0003d0 f7 8c 91 3d 45 f6 2b 3d cf ab 0e 3f cf 92 53 be
       0.07106965 0.041982908 0.5573091 -0.20661472
0003e0 fd 4a df 3e 91 03 46 3e 40 58 ca 3e ea 8a 09 3e
       0.436119 0.19337298 0.39520454 0.13431898
0003f0 a8 b6 f0 3e ea e0 63 3e 44 59 b7 3e f4 c2 04 3f
       0.47014356 0.22253767 0.35810292 0.51859975

fc2.bias f4 [64]
000000 55 29 89 ba 5c 8e 01 bf 67 6c 06 bf e0 10 8b 3d
       -0.0010464588 -0.5060785 -0.5250916 0.06790328
000010 23 f5 f0 be 95 89 8e be dc 86 c1 3c 59 fc 44 bb
       -0.47062024 -0.27839342 0.023623876 -0.0030057637
000020 90 bd aa 3b d3 0b a8 3d 94 d2 d9 be 53 3c 44 be
       0.005210586 0.0820538 -0.4254347 -0.19163637
000030 4d 07 11 be 8d 34 dd 3c 3f 80 8e 3e a9 9a f5 3c
       -0.14162941 0.027002597 0.2783222 0.029980974
000040 51 f2 ee be e2 f2 87 be 2f de 52 be 6f 35 c2 be
       -0.46669248 -0.26552492 -0.20592569 -0.37931392
000050 b0 c0 be be 46 db e3 be 39 af 55 3d 8d b3 ba bc
       -0.37256384 -0.4450323 0.05216906 -0.022790695
000060 d8 82 f9 be 39 39 50 3e d0 dc 05 3c 4e 7e 0a bf
       -0.48732638 0.20334329 0.008170322 -0.54098976
000070 07 51 9c be 5d 9d 38 3d da 59 3b bc 72 3e 1f 3d
       -0.3053057 0.04507195 -0.0114349965 0.038877912
000080 96 d8 73 3b af 42 ed 3c 7e 00 5e be aa f8 b6 3d
       0.0037207953 0.028962461 -0.21679875 0.08934148
000090 28 d2 c1 3d f4 a6 f1 bb 50 a4 1b be c2 a0 94 be
       0.09463912 -0.0073746387 -0.15199399 -0.29028898
0000a0 42 48 9f 3d 29 e9 9f be 63 e4 a2 bb 18 22 fa be
       0.07777454 -0.31232575 -0.0049710735 -0.48854136
0000b0 c8 f3 bc bb c5 ae 7a bd 62 38 9e 3d 2f 11 6a be
       -0.0057663657 -0.06120183 0.07725598 -0.22858118
0000c0 76 bb ac 3d 3e f1 0b 3d c6 5a c7 3c a6 b3 92 bd
       0.08434193 0.034165613 0.024335276 -0.071631715
0000d0 70 a0 e7 3d 97 67 fc be 5d 74 57 3d 3c e0 c3 bb
       0.11309898 -0.49297783 0.052601207 -0.0059776586
0000e0 49 fd e6 be df c8 dd be 76 9c 87 be ae 50 1f 3e
       -0.45115116 -0.43317315 -0.26486558 0.1555812
0000f0 3e 05 ed be 2a 8d 18 bc d6 6c bd bb 86 d1 b9 be
       -0.46293062 -0.009311 -0.0057807965 -0.36292666

fc3.weight f4 [64, 64]
000000 90 6f 9f 3d bc dc 75 3d 90 17 49 bd e0 94 cf 3d
       0.07784951 0.06002496 -0.049094737 0.101358175
000010 20 4d a0 3d f0 da f3 bc 02 c2 cd bd 34 2d 96 3d
       0.078272104 -0.029767483 -0.1004677 0.073328406
000020 70 01 09 3d 1c d9 3e bd 00 db 7d 3b 14 51 d2 bd
       0.033448637 -0.04659377 0.003873527 -0.10269371
000030 12 4c 9d 3d 00 0a 95 3c 56 c9 9e bd 40 35 c4 bb
       0.07680525 0.018193245 -0.077532455 -0.005987793
000040 e0 a2 a5 bd 18 41 8e 3c 34 36 81 3d 88 89 82 bd
       -0.080877066 0.017365023 0.063091666 -0.06373888
000050 14 57 57 3d 00 27 24 3a c0 91 91 bd 1a 9e b6 3d
       0.05257328 0.0006261915 -0.07107878 0.08916874
000060 fa 84 a3 3d e0 24 e9 3d 70 90 60 3d 58 3f b5 bc
       0.07984348 0.113839865 0.054825246 -0.022124931
000070 94 47 3f bd 12 9b dc 3d 8a 4e 82 bd 24 d2 ba bd
       -0.04669912 0.10771765 -0.063626364 -0.091221124
000080 d0 a7 5c bc 56 af ec 3d 00 e8 62 b9 e8 67 97 bd
       -0.013467744 0.1155688 -0.00021639466 -0.073928654
000090 18 35 fc bc 88 91 c1 bd 70 c2 49 3d 00 f8 f0 bd
       -0.030787036 -0.09451586 0.049257696 -0.11766052
0000a0 9e 4c a6 bd 78 23 af bd 70 14 f3 bd a0 3c c9 bd
       -0.08120082 -0.08551687 -0.118691325 -0.098260164
0000b0 b0 55 61 3c 0c 21 66 bd dc 4e 8b bd 70 b3 41 3c
       0.01375334 -0.05618386 -0.068021506 0.011822566
0000c0 a8 c7 8e 3c a0 a4 78 bd e8 32 be 3c 74 8a c4 3d
       0.017429188 -0.060703874 0.023217633 0.0959672
0000d0 68 ab 26 bd 28 ae a0 bc 06 b5 ee 3d 28 62 ac bd
       -0.04069081 -0.019614294 0.11655621 -0.08417159
0000e0 1c ff ad bd 6c e1 a8 bd c0 b2 48 bd 6e 9e 8f 3d
       -0.08495924 -0.08246121 -0.048998594 0.0701264
0000f0 2c 28 b7 bd 70 c5 97 bc 60 8e ff bc a0 6b 59 3d
       -0.08943209 -0.018526763 -0.03119582 0.053081155
000100 bc 07 29 b8 c1 28 fe bd 57 d3 a9 3c 00 4c 51 bc
       -4.0299943e-05 -0.12410117 0.020730658 -0.0127744675
000110 d2 fa d6 3d 40 9a b3 3d c6 00 64 bc 50 7c c2 3c
       0.10497059 0.08769655 -0.0139162 0.023740917
000120 5a 3f 19 bc a7 79 20 bd 86 1c 7c bd d8 26 70 3b
       -0.009353483 -0.039178517 -0.06155064 0.0036644246
000130 93 88 65 3d d3 29 aa 3d 41 3c 97 bd 50 4c 17 3d
       0.05603845 0.083087586 -0.073845394 0.03693801
000140 c7 b9 b5 3c b9 be 19 3c 7f 17 74 bd 5e 69 86 3d
       0.022183312 0.009383851 -0.05959272 0.06563066
000150 e2 52 8a 3c 08 21 a8 bd 0d 64 21 3d fc ac cd bd
       0.016885225 -0.08209425 0.039402056 -0.1004276
000160 e9 90 d8 3a 78 dd 93 bd 1e 22 9f bd 63 18 a0 bc
       0.0016522679 -0.07219976 -0.07770179 -0.019542878
000170 f4 05 b2 3d 97 4e 02 be f5 71 8c bd d3 90 a2 bc
       0.08692542 -0.12725292 -0.06857673 -0.019844448
000180 2f 97 57 3d 97 f9 b6 bd 64 5b fe bd 00 2d e1 3c
       0.052634414 -0.08934324 -0.12419775 0.027487278
000190 ef 29 25 bc 1e 9e 9d 3d 57 6e e1 bd fd a0 90 3d
       -0.0100807985 0.07696174 -0.11007374 0.07061956
0001a0 41 b7 f9 bd ed 38 ab 3c 60 68 a1 bc 10 32 3d 3d
       -0.12193156 0.020901168 -0.01970309 0.04619032
0001b0 20 6e 72 3c 69 bf b9 3d 94 a6 17 3d 5c 03 34 bd
       0.014796764 0.09069712 0.037024096 -0.043948516
0001c0 fe 20 00 be 23 23 62 bc 73 59 0b be 70 81 f2 3d
       -0.12512586 -0.013802323 -0.13608341 0.118410945
0001d0 29 84 66 bd 93 63 d7 3d 49 83 ca 3c db 56 b3 3d
       -0.05627838 0.10517039 0.024720805 0.08756801
0001e0 06 97 8e 3d 58 a1 17 3d 7b f7 70 3d f8 c4 a3 3d
       0.06962399 0.037019104 0.058829766 0.07996553
0001f0 9e f4 41 3d 81 0d e1 bd 7d a6 08 be 81 24 b5 bd
       0.047352426 -0.10988904 -0.1334476 -0.08844853
000200 ea b9 d8 3e 55 f8 13 3f 38 80 c3 3e 24 5c 98 3e
       0.4232934 0.578008 0.3818376 0.29757798
000210 23 2c c5 3e 07 fa b1 3e cd c0 a0 3e 4d 31 3a 3e
       0.38510236 0.34761068 0.31397095 0.1818287
000220 cf a1 99 3e c4 91 5c 3e 53 e0 03 3f cc 09 32 bf
       0.30006263 0.2153998 0.51514167 -0.695462
000230 7e bd 6e 3e 99 e6 82 3e b4 61 19 bf 5f bc 3f bf
       0.23314473 0.25566557 -0.5991471 -0.74896806
000240 5f 0d 13 3f c7 ef 6d 3e 13 31 b8 3e 95 53 87 3e
       0.5744228 0.23235999 0.3597494 0.26430956
000250 cc 74 84 3e 39 df 51 3e 17 4d b6 3e 0b e8 2f 3e
       0.2587036 0.20495309 0.3560569 0.17178361
000260 ed d7 09 3f 8f 3e 34 3f a1 7e ba 3e bf ab 1b 3f
       0.538451 0.70407957 0.36424735 0.6080894
000270 d1 55 ab 3e 23 78 1d bf 50 53 9a 3e 0c 93 bc 3e
       0.3346391 -0.6151144 0.30141687 0.36830938
000280 59 2a 50 3f c6 5e b6 3e f2 63 81 3e 39 94 b2 3e
       0.8131462 0.3561918 0.25271565 0.3487871
000290 a7 ce 92 3e 96 b7 bc 3e 15 f8 c7 3e 6d 28 a3 3e
       0.28673288 0.36858815 0.3905646 0.3186678
0002a0 87 c2 91 3e 0b bf c2 3e 3e e0 ab 3e 20 96 a8 3e
       0.28468725 0.3803638 0.3356952 0.32927036
0002b0 15 5b a9 3e ec 7b 86 bf 19 c3 85 3e 35 5d 88 3e
       0.33077303 -1.0506568 0.2612541 0.2663361
0002c0 60 83 7f 3e 99 28 36 bf 8d bd 21 3e 74 83 65 bd
       0.2495246 -0.711557 0.15794964 -0.056033567
0002d0 d4 57 ab 3e b5 b0 d8 3e 83 4c b0 3e 26 44 54 3e
       0.33465445 0.42322317 0.34433374 0.20729122
0002e0 3e b6 93 3e 8c 4d a0 3e 57 65 31 3e ec 9a 10 bf
       0.28849977 0.31309164 0.17323814 -0.5648639
0002f0 5b d5 b5 3e 22 10 b8 3e 30 11 68 3e a7 e5 92 3e
       0.3551434 0.35949808 0.22662807 0.28690836
000300 e7 1d dd 3e 97 a9 22 3f 4a e7 c9 3e f7 5f 6f 3e
       0.43186876 0.63540024 0.39434272 0.23376451
000310 68 49 d7 3e 9a fb c3 3e 40 ec 87 3e f6 2e a4 3e
       0.42048192 0.38277894 0.26547432 0.32067078
000320 65 1e 6f 3e f0 34 8c 3e 1b 4a c9 3e bb 20 27 bf
       0.23351438 0.27384138 0.3931435 -0.6528432
000330 15 33 90 3e d3 c2 c6 3e 1a 23 39 bf 29 9f 34 bf
       0.28163972 0.38820514 -0.72319186 -0.7055536
000340 02 a9 c8 3e dd 0c c7 3e 12 36 8a 3e 2d 0b 8f 3e
       0.39191443 0.38877 0.26994377 0.27938214
000350 f3 76 6c 3e d9 fd 90 3e 93 59 8f 3e c9 0b 29 3e
       0.2309225 0.2831867 0.27998027 0.16508402
000360 ec f7 0b 3f 00 45 32 3f 32 47 8b 3e 4f 13 4b 3f
       0.54675174 0.69636536 0.27202755 0.7932634
000370 bc 83 3d 3e 8f 30 1c bf 43 14 6e 3e 2b 80 4b 3e
       0.18507284 -0.61011595 0.23249917 0.19873111
000380 88 89 56 3f 78 63 77 3e e9 b4 8c 3e b3 97 bf 3e
       0.83803606 0.24159038 0.27481773 0.37420425
000390 4d 4b 69 3e 01 5d 48 3e 4b ae 85 3e 46 1f 47 3e
       0.22782631 0.19566728 0.26109537 0.19445524
0003a0 f8 7e ba 3e 81 61 2e 3e f9 4d 9d 3e 2d 62 f9 3e
       0.36424994 0.17029382 0.3072355 0.48707715
0003b0 bd 9c c8 3e 03 05 89 bf 9e a5 6b 3e 22 c9 c7 3e
       0.39182082 -1.0704654 0.23012397 0.3902064
0003c0 d4 20 8b 3e 5e e8 27 bf e7 8b 3d 3e 20 5f bf bd
       0.27173483 -0.6558894 0.185104 -0.093443155
0003d0 0e 76 a3 3e 94 fc e8 3e ef 43 98 3e 0a fa bf 3e
       0.31926006 0.45505202 0.2973933 0.37495452
0003e0 d6 db dc 3e 24 c8 5d 3e 6b d8 a5 3e c5 37 47 bf
       0.43136472 0.21658379 0.32391676 -0.7781947
0003f0 13 c7 bc 3e 99 d4 49 3e 3e 16 61 3e 13 43 d1 3e
       0.36870632 0.19710006 0.21981141 0.40871486

fc3.bias f4 [64]
000000 e4 20 b0 bd 39 8e 39 3d 90 14 1c 3e 58 da 3c 3d
       -0.086000234 0.04530165 0.15242219 0.046106666
000010 21 53 1d bd d6 75 ec bd db 70 3e bc 74 ec 99 bd
       -0.038409356 -0.11545913 -0.0116235865 -0.07515803
000020 0f 94 cf bd 1c 75 26 be 6e df 5a be d6 74 49 3e
       -0.10135662 -0.16255611 -0.21374294 0.19673476
000030 bf a8 1a bd e5 0e 7b 3d dc b0 93 bb 43 d0 ba bc
       -0.037758585 0.0612935 -0.0045071673 -0.022804385
000040 d4 1c ea bd e3 21 04 be ec 37 49 3c a2 44 d0 bd
       -0.1143128 -0.12903552 0.012281399 -0.10169341
000050 f1 65 10 3d 8f 7e 52 3e 2f af 16 be f5 bd 07 3e
       0.03525347 0.20556091 -0.14715265 0.13256057
000060 9e 73 13 3e 67 6d dc bd dc 39 df 3d 06 ac bf 3e
       0.14399573 -0.10763054 0.10899708 0.3743593
000070 37 09 6e bd 00 60 2d be bf 5c d6 bd 96 98 05 3d
       -0.058114257 -0.16931152 -0.10466909 0.03261622
000080 2a e5 a4 3e 24 77 39 be 30 b3 8c 3c 31 51 1c bc
       0.32206088 -0.18111855 0.017175287 -0.009540842
000090 dd 76 05 be a8 24 91 bd 43 9d a0 3d ce 11 fb 3c
       -0.13033624 -0.0708707 0.07842495 0.030648138
0000a0 2c df 30 3e ad c1 5e 3c b0 7c e8 bd 7d 83 a9 bd
       0.17272633 0.013595981 -0.11351907 -0.082770325
0000b0 12 d1 a9 3d 1c ff 49 3f 57 f6 35 bd d6 91 ee 3b
       0.0829183 0.7890489 -0.04442438 0.0072805686
0000c0 de e9 14 be 28 ff 72 bc 64 3f 8c bd 18 6f e4 3d
       -0.14542338 -0.014831342 -0.06848028 0.11154002
0000d0 9c ba 05 be 0e a0 f4 3d 90 5b 7b bd 48 8f af bd
       -0.13059467 0.119445905 -0.061366618 -0.085722506
0000e0 fd 86 bb bd 8d 2a 07 bd fd d1 0d 3e f5 a7 bd 3c
       -0.09156606 -0.032999564 0.13849635 0.023151377
0000f0 f1 a9 2b 3e 7c 52 fe bd c1 06 ee bd c8 18 49 bd
       0.16764046 -0.124180764 -0.11622382 -0.0490959

fc4.weight f4 [1, 64]
000000 72 84 c0 3d b4 17 64 bb f8 7b ef 3e a2 de b6 3e
       0.09400262 -0.0034804167 0.46774268 0.3571673
000010 27 85 eb bc 72 e3 b7 bc b3 d4 ce bd 60 b2 4c bd
       -0.028750015 -0.022447322 -0.10099163 -0.0499748
000020 d9 df da 3e 93 62 e0 3e ce 81 ea 3e 81 01 bb 3e
       0.42748907 0.43825206 0.45802158 0.36524585
000030 df 01 18 bd 20 99 91 bd 19 e4 c5 3d ef 80 c7 3e
       -0.03711116 -0.071092844 0.09662647 0.38965556
000040 74 c6 6f 3d 88 c1 95 bd 00 6b de 3e 32 82 ed bd
       0.05853887 -0.07312304 0.4344101 -0.115970984
000050 c8 a5 e4 3e ab 38 db 3e 3c 3f b4 3e fa 5a c1 3e
       0.4465773 0.42816672 0.35204494 0.37764722
000060 45 57 d3 3e e0 9c 9d 3d dd 6a c2 3e 45 ad 34 bf
       0.4127752 0.07695937 0.37972155 -0.7057689
000070 db 2c 98 bd 43 85 b9 3e 37 e9 b4 3e 9b d4 b8 bd
       -0.074304305 0.36234483 0.3533418 -0.09024926
000080 14 fb 1f bf 2d 60 bc 3e 67 38 e1 bd ba bb d7 bc
       -0.6249249 0.36792126 -0.10997086 -0.026334632
000090 59 26 e7 3e d7 41 de 3e f3 37 b8 3e cd 48 be 3e
       0.45146444 0.43409607 0.35980186 0.37164918
0000a0 50 a8 d3 3e 7f 74 bb bd e0 b7 74 bc 7d c5 f1 bc
       0.4133935 -0.09153079 -0.014936417 -0.029513115
0000b0 5a fb 14 bd a1 f0 a2 3f 2d e5 85 bd 60 3a d8 3e
       -0.03637252 1.2729684 -0.065378524 0.42232037
0000c0 61 5a 21 bc 25 15 dc 3e 33 33 ef 3e 14 28 d2 3e
       -0.009848208 0.42984882 0.4671875 0.41046202
0000d0 2c a2 dc bd 68 a1 bd 3e 92 28 87 bd 40 3e c8 bd
       -0.10773119 0.37037206 -0.06599535 -0.09777498
0000e0 96 99 97 bd 9f 71 ce 3e 1c c1 db 3e 9b bb 30 3c
       -0.07402341 0.4032106 0.42920768 0.010786916
0000f0 c2 9d b6 3e e0 84 5a bc 64 a7 cf bd 74 21 d7 bd
       0.35667235 -0.013337344 -0.10139349 -0.105044276
